reflexion/result/epoch_0010/critic.pth (torch, 3223 bytes, 1 tensors)

weight f4 [1, 512]
00000000: 0ee0 603b 3f59 b43c e59d f63b 3835 c7bc
00000010: d9d5 febb dd21 ec3c 6abf 6a3c 7775 123d
00000020: 6153 15bd 996b c4bc 3600 1c3d c3fa 253d
00000030: 61ef 033d 6a51 2fbd 5393 023d f341 133d
00000040: 056d 7f3c a1de 6cbb a065 b8bc f235 ce3c
00000050: 1c9e 213d c6a5 ad3c ed6e 2ebc b85c 833c
00000060: af15 99bc 7d42 24bd f799 843c 9e85 9ebc
00000070: 91ce 4a3c f3fd e33b 2d54 b63c c177 a43c
00000080: 3bd6 303d c9b8 173d 64ce 923a 6612 073c
00000090: 3893 b0bb 1b7f 933c b6cf 1abb 36b1 ca39
000000a0: 9cd6 903c 87f6 cebc a466 5d3c 56c0 f63b
000000b0: 3260 25bd 36b0 09bc 7388 623c 609d b33b
000000c0: b80e 03bd a4d9 8ebc 7a64 f43c e463 6f3c
000000d0: c1b5 20bd b461 9e3b e0a3 863c b35f a43b
000000e0: e936 763b ab1b b03b 0ec8 c7bb 56fb f1bb
000000f0: fe8f e93c d0b0 b43b b24e f0bc 3591 283d
00000100: 7d4b 1eba 5549 e8bc 3e84 0d3b 509e ff3b
00000110: fcb7 a8bc c781 10bc 0d53 40bc 46fb 1b3c
00000120: d0fa 29bd 3d17 d73c 5fbd 8ebc 7b3f 21ba
00000130: efe9 b03b 796b 25bd 94e2 0c3d b8f3 c0bc
00000140: 621d eebc 4f40 9ebc b96c 44bb 066c eabc
00000150: 9817 debc 4f57 8f3c faa3 01bd 8dd5 e73c
00000160: f225 063d 1a06 123c 11da cd3c 3f49 253a
00000170: a08a bf3c b924 e33c 11cb 143c e0d6 bdbc
00000180: a6e5 093b 19fc e0bc 9cd2 73bb 6e88 d93b
00000190: dfc2 6cbb b87f 043d 80a1 79bc 9779 223b
000001a0: e419 e9ba dcae 1fbd 2f83 5e3c e973 2d3d
000001b0: d8d1 c2bb 9c74 a73c fb86 88bc 0d7b 1d3d
000001c0: b558 bbbc 3481 2b3d f5ee f3bc 0185 67bc
000001d0: 5c10 17bd 23a4 22bd b9cb 17bd b684 9fbc
000001e0: 673e 5e3c 9ecd 063d 2be9 cf3c 32e1 e4bc
000001f0: f5c8 2bbd 2eb2 13bd 4abd 263d 7198 be3c
00000200: 21c2 343d a806 923c 924a 35bc 0736 f4bc
00000210: 29c8 e93c 08ad c53c ddc0 23bd b046 bbbc
00000220: 4e8e 97bc 3033 a03c 3b7f 2a3d 600c c5ba
00000230: e347 833c 1a8b ccbc 23a0 073d 493a 7c38
00000240: 83d8 9f3c c2e5 2b3c 47f5 bbbc 26e1 e93a
00000250: b3b6 1fbc 1559 babc dd3d c5bb f581 0f3d
00000260: 35c6 b53c a959 cebb d31e 6939 8416 f83c
00000270: 9945 b9bc 2398 17bd 6655 77bc b953 603c
00000280: e288 f83c aab9 0ebc 55ae b83b 8709 f73c
00000290: 1eef 6d3b 3c20 973c 9dce e5bb f57f 09bd
000002a0: 54ed 2f3b 5d37 123c e6dd 6bbc 731a bc3b
000002b0: 45c7 4e3c 096e 203d d921 96bc ab14 623c
000002c0: 316d 373b 112e 0a3d 5a8f 14bd 1ad7 173d
000002d0: cf34 a6bc 8c4d b0bc eb62 24bd bff3 f23c
000002e0: ca0b 17bd 358d 86bb fc43 f03c 0a79 86bc
000002f0: a0ae 1a3d 1a70 073d 3901 b1bc 6bf8 2c3d
00000300: 8f0f 81bc 64fc 4dbc e12f 0bbd 2349 1b3d
00000310: a2e3 08bd 17f0 533b 0a1e a43c c7e6 973b
00000320: 6f85 243d dc3d b5bc 4665 a43c 05f3 c738
00000330: 0e23 12bd db74 393c cc53 2dbd e650 173d
00000340: 582a 0a3d 764e 9abc 7fc5 ea3c 30b9 27bd
00000350: 8ebd 543c ab31 e2bc 7c46 c73c 2179 24bd
00000360: 65ec b4bc 17d9 e43c 8f74 aebb 261e d7bc
00000370: e0da 1cbd a6d6 ed3c 0b38 03bc 55fd bf3c
00000380: 9892 4a3c c4d5 9c3b a915 043d 3bfd bfbc
00000390: 0616 a53c 37f5 a43c 41f8 34bc f702 473c
000003a0: 2e2c 0c3d ee94 af3c e632 f3bc 2c7d 87bc
000003b0: bea2 1bbc 1b08 96bb 159b 02bd 402c 153d
000003c0: 39b9 433c 96b5 6bbc 5b35 0d3d 9e33 be3c
000003d0: d8ad 823a 6dc8 16bd 66fa e5bc ffbd 5b3c
000003e0: 1606 873c 8e9d f73c 5609 16bd 9521 9fbc
000003f0: ab36 bcbb b356 aa3c 2669 d63c 77c8 1a3d
0.0034313235 0.022015212 0.0075261467 -0.024317369 -0.0077769575 0.028824741 0.014327863 0.035756554
-0.03645647 -0.023977088 0.03808614 0.040522348 0.03221071 -0.042802252 0.03187878 0.035951566
0.015589957 -0.003614344 -0.022509396 0.025172208 0.039457425 0.021197211 -0.010646564 0.016035423
-0.018687097 -0.04010247 0.016186697 -0.019350823 0.012378351 0.0069577633 0.022256935 0.020076634
0.043173056 0.03704146 0.0011200425 0.008244133 -0.0053886436 0.018004945 -0.002362234 0.00038660475
0.017680459 -0.025264038 0.013513241 0.0075302524 -0.040374942 -0.008403828 0.013826477 0.005481407
-0.03199646 -0.017437764 0.029833067 0.014611218 -0.039235834 0.0048334245 0.016435564 0.005016291
0.003756935 0.005374392 -0.0060968464 -0.007384698 0.028511044 0.0055142418 -0.0293344 0.041154105
-0.00060384703 -0.02835528 0.0021593715 0.0078008547 -0.020595543 -0.008820004 -0.011738551 0.0095203575
-0.04149896 0.026256198 -0.017424284 -0.0006151122 0.005398981 -0.040385697 0.03439577 -0.023553714
-0.029066745 -0.019317774 -0.002997203 -0.028615963 -0.02711086 0.017497687 -0.03165052 0.028300071
0.03275103 0.008912588 0.025128396 0.0006305165 0.023381531 0.027727472 0.009081618 -0.02317375
0.0021041422 -0.02746396 -0.003720439 0.006638578 -0.0036126894 0.032348365 -0.0152362585 0.0024791711
-0.0017784205 -0.03898512 0.013581081 0.04234687 -0.0059454255 0.020441346 -0.016665926 0.03844743
-0.022869447 0.041871265 -0.02977703 -0.014130832 -0.036880836 -0.039707314 -0.03705952 -0.019472461
0.013564683 0.032910936 0.025379738 -0.027939413 -0.041939694 -0.036058597 0.040707864 0.02326605
0.04413045 0.01782544 -0.011065142 -0.029810918 0.028537827 0.02413036 -0.03997885 -0.022860855
-0.018500473 0.019555658 0.041625243 -0.0015033595 0.01602549 -0.024968673 0.033111703 6.0135764e-05
0.01951242 0.01049179 -0.022944106 0.0017843589 -0.009748149 -0.022747556 -0.0060193376 0.035036046
0.022189239 -0.0062973094 0.00022232094 0.030284174 -0.022616195 -0.037010323 -0.015096044 0.013691836
0.030338708 -0.008711258 0.0056360164 0.03015591 0.0036305855 0.018447988 -0.0070131556 -0.033569295
0.002684434 0.008924332 -0.014396166 0.0057404577 0.012620752 0.039167438 -0.018326687 0.013798873
0.0027988667 0.03373534 -0.036269523 0.03707037 -0.020288853 -0.021521352 -0.040133398 0.029657243
-0.036876477 -0.0041061887 0.029329292 -0.016415138 0.03776419 0.033065893 -0.021607028 0.042229097
-0.01575449 -0.012572382 -0.033981208 0.037911545 -0.033420213 0.003233915 0.020033855 0.004635665
0.040166315 -0.022124223 0.020067822 9.534325e-05 -0.035677962 0.011319364 -0.042316243 0.036942385
0.03373179 -0.018836241 0.028658627 -0.040948093 0.0129846465 -0.027611574 0.024325602 -0.04015458
-0.022085378 0.027935548 -0.0053239535 -0.026259493 -0.038294673 0.029033016 -0.008008967 0.023436228
0.012364052 0.004786225 0.03224722 -0.02343618 0.020152103 0.020136459 -0.0110455165 0.012146703
0.03422182 0.02143332 -0.029687356 -0.016539179 -0.00949925 -0.004578603 -0.03188618 0.036419153
0.011946016 -0.014386555 0.034474712 0.023217972 0.0009970022 -0.036812235 -0.0280735 0.013411998
0.016482394 0.030226495 -0.036629997 -0.019425193 -0.0057438216 0.020793295 0.026173186 0.037788834
