reflexion/result/epoch_0005/critic.pth (torch, 3223 bytes, 1 tensors)

weight f4 [1, 512]
00000000: e112 c03b 5a82 bd3c e59d f63b 3ac9 d3bc
00000010: d9d5 febb 03e1 f03c 6abf 6a3c f454 133d
00000020: 0de5 1cbd 6fe2 c7bc f50a 253d 7ccb 2c3d
00000030: 729e 083d 5aad 33bd b3ed 043d 9c2b 193d
00000040: 192f 853c 4da2 73bb 00fc c2bc 21e2 d53c
00000050: 75f8 293d 43d5 bd3c 89aa 23bc 48f3 873c
00000060: 86d1 a4bc a675 2ebd 7fb3 8d3c b622 9ebc
00000070: b9ac 4f3c de11 e53b 5112 c43c 88c7 a53c
00000080: daba 333d 2177 1b3d 1701 a73a 6e63 113c
00000090: 7eac c5bb 6259 9a3c d53c 18bb d792 7939
000000a0: 0d6b 933c 698b d7bc d2d2 703c e922 033c
000000b0: 53c6 29bd 2a75 12bc da6b 743c 3fce b23b
000000c0: 463f 09bd 15b9 9ebc 1af3 f83c 165f 803c
000000d0: f600 25bd d114 9a3b c377 8c3c d0e2 a83b
000000e0: cb5c 663b ab1b b03b 34c5 d3bb d011 06bc
000000f0: 1135 f13c 375d c03b b2c9 f3bc b76a 313d
00000100: aed4 a1b9 7412 edbc ff50 e13a 509e ff3b
00000110: 8e1d b5bc 5e9a 25bc d32c 4cbc 70f6 163c
00000120: d0e1 2ebd edb5 e03c 98f2 91bc 7b3f 21ba
00000130: 30b6 ae3b 764b 27bd c89c 123d 6e52 c4bc
00000140: f98b febc 565e a6bc 550c 3dbb b486 f0bc
00000150: 48c7 e6bc fed1 973c 651f 06bd 7a90 f03c
00000160: 4a93 0b3d e02c 143c 7424 d43c b321 cf3a
00000170: 6c21 c93c dad1 e43c cc79 203c bfb7 c8bc
00000180: 811a 223b c9ad efbc 86a2 2dbb 2bf5 0f3c
00000190: b5c7 babb 7dd1 0c3d 4f1b 7cbc bb09 453b
000001a0: 5324 03bb a582 26bd 726c 603c ca76 313d
000001b0: 5e80 dabb 09e3 b03c 12b8 95bc a9c2 213d
000001c0: 2766 cabc 2974 323d 0bd0 fabc 79ed 79bc
000001d0: 5c10 17bd b9ab 26bd 6e0b 1dbd ae7c a7bc
000001e0: 2466 633c c487 0d3d df87 db3c a73d f5bc
000001f0: 0731 30bd 70fb 17bd 41e4 2b3d 9057 c33c
00000200: 21c2 343d c633 9b3c d730 38bc c0eb ffbc
00000210: dfb9 f53c 2792 d23c 4be4 25bd 39fc c0bc
00000220: 33d5 98bc 8369 ab3c 4fbd 303d 04ca 1f3a
00000230: e782 893c 1a8b ccbc 3848 0d3d 7f3e 063a
00000240: 8037 a33c a2da 383c 35c8 bebc 5e1f e13a
00000250: bab9 2ebc 8981 bfbc bbc4 c4bb 99de 123d
00000260: c2b8 b63c b2db cdbb 4f12 c93a ed98 003d
00000270: 42a3 babc d1a2 1abd 607b 84bc deb5 6e3c
00000280: fef8 fc3c aab9 0ebc 6491 b63b ce1f 003d
00000290: 718b 8e3b a27e 993c 8049 0abc 5881 0ebd
000002a0: eb1d 433b 8b8b 1c3c 7edd 6dbc 5a07 9c3b
000002b0: 87e0 543c 8455 223d a302 9bbc f68c 733c
000002c0: 3e4b 733b 5f4b 103d 0d7c 18bd 8a9c 1f3d
000002d0: 3519 bbbc 4a3c c0bc eb62 24bd 196e fb3c
000002e0: 14e1 1abd 7ac2 92bb 789f f13c 065d 90bc
000002f0: 6353 213d d5e6 0b3d dd9c b6bc 2556 313d
00000300: d5d2 86bc bba4 64bc f443 0ebd 3897 213d
00000310: e245 10bd fb89 733b cc40 ab3c a601 933b
00000320: 07d3 293d 13ed bcbc bd4d ad3c 396c bd3a
00000330: 5a13 16bd 7362 3a3c 99d0 30bd 691f 1a3d
00000340: b190 0e3d 59ce a8bc 1c62 f93c 7f63 2ebd
00000350: 8f8a 6a3c 7a52 eabc fe74 ce3c e302 29bd
00000360: 068c babc 7006 ea3c 47ce a7bb 199d d7bc
00000370: 747a 1dbd 04fc f03c d6ca edbb 6e81 cb3c
00000380: 5023 523c 51aa 723b 33b3 0a3d a1a2 d2bc
00000390: 6d6a b23c 8be4 ae3c a548 37bc e51f 5d3c
000003a0: fa24 143d 7ad0 a73c bf41 fcbc e548 8dbc
000003b0: 2fad 1fbc fafc b3bb b8d1 06bd d3bd 1c3d
000003c0: 1f58 463c 1877 80bc 3896 103d 0916 c73c
000003d0: 0d8a c23a 9735 1dbd 512a ecbc 95d4 593c
000003e0: 2301 863c ba53 fc3c 631b 1dbd d910 a8bc
000003f0: f098 c9bb 637a ac3c 4caa da3c fc7b 1c3d
0.0058616255 0.023133446 0.0075261467 -0.025852788 -0.0077769575 0.029404169 0.014327863 0.03596969
-0.038304377 -0.024399964 0.040293653 0.042186245 0.03335423 -0.043866493 0.03245325 0.037395105
0.01625781 -0.0037175596 -0.023801804 0.026108803 0.041496713 0.02317298 -0.009989389 0.016595498
-0.02011944 -0.042592667 0.017297504 -0.01930366 0.012675458 0.0069906553 0.023934515 0.020236745
0.043879367 0.037955407 0.0012741414 0.008873804 -0.0060325256 0.01884145 -0.0023229618 0.00023801193
0.017995382 -0.026311593 0.014698701 0.008003929 -0.041448902 -0.008939067 0.014918292 0.0054567154
-0.033507608 -0.019375363 0.030389357 0.01567034 -0.04028412 0.0047021885 0.01714695 0.0051539913
0.0035150524 0.005374392 -0.0064627174 -0.008182958 0.02944425 0.005870487 -0.029759262 0.04331466
-0.00030866772 -0.028939463 0.0017190276 0.0078008547 -0.02210882 -0.010107605 -0.012461859 0.009214029
-0.04269582 0.027430499 -0.017815873 -0.0006151122 0.005331777 -0.04084345 0.03579405 -0.023965087
-0.031072604 -0.020308655 -0.0028846462 -0.029361106 -0.028171197 0.01853275 -0.032744784 0.029365767
0.034076013 0.009043902 0.025896288 0.001580289 0.02455207 0.027932096 0.009794664 -0.02450168
0.0024735036 -0.029257672 -0.0026494577 0.00878648 -0.0057000765 0.03437947 -0.01538737 0.0030065614
-0.0020010665 -0.040651936 0.01369773 0.043326177 -0.0066681346 0.021592634 -0.018276248 0.039492283
-0.024706913 0.04356781 -0.03061678 -0.015254372 -0.036880836 -0.04069111 -0.03834098 -0.020445194
0.013879333 0.034553304 0.026798187 -0.029936625 -0.043015506 -0.037105024 0.041965727 0.023845464
0.04413045 0.018945586 -0.011242113 -0.031240344 0.029995857 0.025704456 -0.04050092 -0.02355777
-0.018656349 0.020924335 0.04314929 0.00060954713 0.016786052 -0.024968673 0.0344927 0.0005121007
0.019923925 0.011282595 -0.023288826 0.0017175486 -0.010664398 -0.023377197 -0.0060048974 0.035856817
0.022304896 -0.0062822932 0.0015340539 0.03139584 -0.022782926 -0.03775293 -0.016172111 0.014569728
0.030880447 -0.008711258 0.005571531 0.03128033 0.004350119 0.018737141 -0.008440375 -0.03479132
0.0029772471 0.009554754 -0.01451814 0.0047616186 0.012992985 0.039632335 -0.018922156 0.014865151
0.0037123705 0.03522813 -0.03722768 0.038967647 -0.022839168 -0.023466248 -0.040133398 0.030692147
-0.037812307 -0.00447875 0.029494986 -0.017622482 0.039386164 0.034155685 -0.022291595 0.043295044
-0.016457954 -0.01395529 -0.034732774 0.039450854 -0.035222895 0.00371611 0.020904921 0.0044862805
0.041461017 -0.023062265 0.021155233 0.0014451809 -0.03663955 0.011376011 -0.043167684 0.03762761
0.034805957 -0.020606207 0.03044229 -0.042575356 0.0143152615 -0.028603781 0.02520227 -0.04126252
-0.022771847 0.028567523 -0.0051210257 -0.026320027 -0.03844686 0.029417045 -0.007256846 0.02484199
0.012825802 0.0037027786 0.033862304 -0.025712313 0.021779263 0.021349212 -0.011186753 0.013496374
0.036168076 0.020485152 -0.030793069 -0.017246673 -0.00974588 -0.0054928036 -0.032914847 0.038266968
0.012105971 -0.015681788 0.03529951 0.0243025 0.0014842168 -0.038381185 -0.028828772 0.013295312
0.016357964 0.030801643 -0.038356196 -0.020515846 -0.006152265 0.021054452 0.026692532 0.03820418
