reflexion/result/epoch_0011/critic.pth (torch, 3223 bytes, 1 tensors)

weight f4 [1, 512]
00000000: 701d 663b 637f b33c e59d f63b 27c1 c6bc
00000010: d9d5 febb 1986 eb3c 6abf 6a3c 3b1c 123d
00000020: d6e8 14bd 996b c4bc 4aa5 1a3d e7f3 253d
00000030: 61ef 033d 6a51 2fbd 5393 023d b1ba 123d
00000040: e92d 7f3c 2835 6dbb ad49 b7bc e33e cd3c
00000050: 3007 213d 663d ac3c 3f48 2fbc 0706 823c
00000060: af15 99bc ba48 23bd f799 843c 9569 9fbc
00000070: 885b 4c3c 9a75 e43b 2d54 b63c 4688 a43c
00000080: b41a 303d 3554 173d 8766 b13a 2fa3 053c
00000090: 3893 b0bb 697c 923c 8f7f 1bbb b265 b539
000000a0: 534b 903c 9335 cebc 2b6c 5c3c 84a9 ef3b
000000b0: 4767 25bd dae3 06bc db87 623c 6537 b53b
000000c0: dcc2 02bd 8a82 8dbc 7a64 f43c 1bc9 6f3c
000000d0: b907 20bd 4f0e 9d3b 2304 863c 2a14 a03b
000000e0: a9d1 763b ab1b b03b aaa2 c8bb f7ae ecbb
000000f0: 7b78 e83c c4b0 b43b 6550 efbc 181e 273d
00000100: 7d4b 1eba 11b4 e7bc 3e84 0d3b 509e ff3b
00000110: 724a a8bc 78cf 0abc 2a33 3ebc adf0 1b3c
00000120: 223b 29bd 2dc8 d53c 5fbd 8ebc 7b3f 21ba
00000130: 4178 b33b 0452 25bd 94e2 0c3d b8f3 c0bc
00000140: 6908 eebc b7f1 9cbc b96c 44bb 890b e9bc
00000150: 7c23 ddbc 3007 8f3c faa3 01bd dc97 e63c
00000160: 13ba 053d b6cb 143c 11da cd3c 023f 8e39
00000170: 0561 be3c b924 e33c 4a5d 133c 5f0a bbbc
00000180: 54de fd3a a1d5 e0bc ef69 78bb 7fd1 cf3b
00000190: 67d3 6bbb 7bf7 033d 821f 7bbc 94f2 1b3b
000001a0: 06cd e1ba 5f6e 1ebd a947 5d3c 41bd 2c3d
000001b0: ae2a c0bb 26fb a63c 8e9a 87bc 0d7b 1d3d
000001c0: 176f b9bc 9e7a 2b3d 7923 f3bc be84 67bc
000001d0: 5c10 17bd c28c 22bd b20a 17bd b684 9fbc
000001e0: b68d 5d3c 9ecd 063d 45ed cd3c 6f9c e3bc
000001f0: 6f15 2bbd 80f5 12bd 9b91 263d 5819 bd3c
00000200: 21c2 343d b6e0 903c 28db 34bc 0736 f4bc
00000210: 2643 e83c bcd0 c33c 7329 23bd cec8 babc
00000220: 1c8d 97bc 2719 9f3c 0c81 293d f77e 00bb
00000230: 2c1a 823c 1a8b ccbc efe5 063d 0b87 1138
00000240: 5824 9f3c c2e5 2b3c 822a bcbc 68ac e13a
00000250: b81b 1ebc 1559 babc 9101 c6bb f581 0f3d
00000260: 35c6 b53c 56db d9bb 132e ad39 8f37 f83c
00000270: 9945 b9bc 0c4e 17bd 7ea4 76bc 7980 603c
00000280: e288 f83c aab9 0ebc 557d b93b 8709 f73c
00000290: 82e7 663b 3c20 973c ab25 e3bb bf9a 08bd
000002a0: 81e9 2f3b a9a9 103c e6dd 6bbc d14e bf3b
000002b0: bb44 4e3c ac33 203d 0afd 95bc c11c 623c
000002c0: e02b 313b e4bc 093d 5a8f 14bd 8451 173d
000002d0: f1c5 a2bc 5f80 afbc eb62 24bd 2262 f13c
000002e0: 8c0a 17bd 95af 89bb fc43 f03c ccd4 84bc
000002f0: f763 1a3d e0f7 063d 2342 b0bc 94c8 2c3d
00000300: 479e 81bc 2ae2 4bbc 5bd0 0abd a31a 1a3d
00000310: 69a5 07bd 9efe 473b cd67 a23c 1fe8 9c3b
00000320: 6f85 243d 7ece b4bc 8589 a33c d2cf 4039
00000330: abd9 11bd e54f 3a3c cc53 2dbd e650 173d
00000340: a322 0a3d 2252 99bc b07e e93c 1cbf 27bd
00000350: 261c 533c f102 e0bc 7c46 c73c 2179 24bd
00000360: 7766 b4bc 0a33 e13c aa70 b3bb 261e d7bc
00000370: 1435 1cbd eceb ec3c 0b96 03bc 9d40 bf3c
00000380: 9892 4a3c d45e a13b 36d0 023d a2f6 bfbc
00000390: d615 a53c 2fb1 a43c 7a1d 35bc 0d70 443c
000003a0: b2d2 0c3d b9d4 b03c 818b f2bc 54de 86bc
000003b0: 2e7c 1cbc 8f51 8ebb 0100 02bd f25a 133d
000003c0: 39b9 433c 96b5 6bbc 07f0 0c3d 694d bd3c
000003d0: d6ad 6f3a ab53 16bd 0e97 e5bc 74be 5a3c
000003e0: 4df7 863c b151 f73c dbf9 15bd 7337 9ebc
000003f0: ab36 bcbb 3f2b a93c 3338 d63c 77c8 1a3d
0.003511276 0.021911329 0.0075261467 -0.024262024 -0.0077769575 0.028750466 0.014327863 0.035671454
-0.036354862 -0.023977088 0.03775529 0.040515807 0.03221071 -0.042802252 0.03187878 0.035822574
0.015574911 -0.0036195014 -0.022373999 0.0250544 0.039313495 0.02102537 -0.010698377 0.015872015
-0.018687097 -0.03986428 0.016186697 -0.019459525 0.012472995 0.006972027 0.022256935 0.020084511
0.042994216 0.03694554 0.0013534584 0.008156582 -0.0053886436 0.017881589 -0.0023727154 0.0003459878
0.017614042 -0.02517203 0.013453524 0.007313909 -0.040381696 -0.008233035 0.013826336 0.005530285
-0.031924114 -0.01727416 0.029833067 0.01463535 -0.039069865 0.0047929655 0.016359394 0.0048852162
0.0037661588 0.005374392 -0.0061229067 -0.007223006 0.028377762 0.005514236 -0.02921314 0.040800184
-0.00060384703 -0.028284105 0.0021593715 0.0078008547 -0.02054331 -0.008472316 -0.011608878 0.009517831
-0.04131616 0.026096428 -0.017424284 -0.0006151122 0.005476982 -0.04036142 0.03439577 -0.023553714
-0.029056745 -0.019158227 -0.002997203 -0.028447883 -0.02699446 0.017459482 -0.03165052 0.028148584
0.032648157 0.009081772 0.025128396 0.00027131295 0.023239622 0.027727472 0.00899441 -0.022832094
0.0019368627 -0.027445616 -0.0037904938 0.0063421126 -0.003598416 0.032218438 -0.015327336 0.002379571
-0.001722724 -0.038679477 0.013505855 0.042172674 -0.005864463 0.020383429 -0.01655319 0.03844743
-0.02263598 0.041864984 -0.02968 -0.014130769 -0.036880836 -0.03968502 -0.036875434 -0.019472461
0.013522556 0.032910936 0.025137553 -0.027784554 -0.041768488 -0.03587866 0.040666204 0.023083374
0.04413045 0.017685276 -0.011038579 -0.029810918 0.028352331 0.023903243 -0.03983445 -0.02280083
-0.018499903 0.019421173 0.041382834 -0.0019606927 0.01588162 -0.024968673 0.032934126 3.4696463e-05
0.01942651 0.01049179 -0.022969488 0.0017217519 -0.009650163 -0.022747556 -0.006042667 0.035036046
0.022189239 -0.0066484613 0.0003303146 0.03029993 -0.022616195 -0.036939666 -0.015053866 0.013702505
0.030338708 -0.008711258 0.0056606927 0.03015591 0.0035233204 0.018447988 -0.0069319806 -0.033350702
0.002684206 0.008829513 -0.014396166 0.005838253 0.012589629 0.03911178 -0.018309135 0.013800801
0.0027034208 0.033627406 -0.036269523 0.036942974 -0.019869776 -0.021423517 -0.040133398 0.029465739
-0.036875293 -0.004201839 0.029329292 -0.01621475 0.03769299 0.032951236 -0.021515911 0.042183474
-0.015822543 -0.012444058 -0.03389011 0.03762306 -0.03311673 0.0030516754 0.019824887 0.004788413
0.040166315 -0.02207112 0.019963035 0.00018387966 -0.035607975 0.011371587 -0.042316243 0.036942385
0.03372444 -0.018715922 0.028502792 -0.04095374 0.012885129 -0.027345153 0.024325602 -0.04015458
-0.022021515 0.027490158 -0.005476077 -0.026259493 -0.038136557 0.02892109 -0.0080313785 0.02334624
0.012364052 0.0049246345 0.031936847 -0.023433033 0.020152014 0.020104019 -0.011054391 0.011989606
0.034380622 0.021585809 -0.029607536 -0.016463436 -0.009551091 -0.0043432186 -0.031738285 0.035975404
0.011946016 -0.014386555 0.034408595 0.023108201 0.000914303 -0.036700886 -0.02802613 0.013351072
0.016475344 0.03019032 -0.036615234 -0.01931355 -0.0057438216 0.020650504 0.026149845 0.037788834
