reflexion/result/epoch_0046/critic.pth (torch, 3223 bytes, 1 tensors)

weight f4 [1, 512]
00000000: 20b9 833b 6392 b13c e59d f63b 49db c8bc
00000010: d9d5 febb 9321 ec3c 6abf 6a3c 2568 123d
00000020: 5945 19bd 0c9c c3bc 26e4 1e3d 462c 243d
00000030: 2891 023d ee22 31bd 4ede 023d 1000 163d
00000040: 4f89 813c 876a 6cbb 2728 babc 30c7 cf3c
00000050: 206d 253d f443 b33c 4bc8 35bc 1f3e 7e3c
00000060: e386 a2bc 9a06 2bbd d9fe 853c a115 9dbc
00000070: 14ef 4d3c efd9 ea3b cf93 bb3c cc1e a73c
00000080: 947f 313d f429 173d 1f96 ae3a 5908 0b3c
00000090: 86de c1bb 83e8 933c 860d 2dbb 7626 223a
000000a0: 6d99 903c 18b8 d2bc 9e81 5f3c 0607 063c
000000b0: 79bd 25bd b309 00bc b797 5c3c 84e1 c83b
000000c0: 1dd9 04bd fb11 96bc be7a f63c 2133 693c
000000d0: a564 1dbd 1e70 c63b a685 843c 2f00 973b
000000e0: 283e 993b ab1b b03b 9614 dfbb 1bb2 ecbb
000000f0: ed81 e83c 2925 b83b 7b19 f3bc c8e8 293d
00000100: 3d82 c8b9 2539 e9bc efaf 063b 5e76 fb3b
00000110: d9da a6bc 6bbe 0cbc d476 43bc 2246 253c
00000120: 2c0e 2cbd 6cf4 db3c 9cfe 8bbc 7b3f 21ba
00000130: 70a8 b53b 2faa 24bd 7de0 073d 0348 c2bc
00000140: 56c4 f1bc deef 9cbc 550c 3dbb d02c ebbc
00000150: 2c01 dcbc 5f00 903c d03c 04bd 71d0 f13c
00000160: e8fb 063d 5082 143c 65e0 cc3c e3c8 923a
00000170: 4c95 bb3c 5fe7 e13c 5a6a 173c c3b6 c4bc
00000180: d41a 2a3b 7d69 e5bc 2aac 57bb fa2c e13b
00000190: c1d0 7dbb 7163 083d 08f4 83bc 6b64 263b
000001a0: 735b c6ba 391e 20bd 3dcf 553c 76d6 2a3d
000001b0: c63d afbb 089c aa3c f936 90bc 1af4 1e3d
000001c0: c21b bcbc 3e54 2a3d 1bda f4bc e804 74bc
000001d0: 5c10 17bd de22 20bd 5115 16bd db24 99bc
000001e0: ba08 633c 43d4 0a3d c76f d53c 17a5 eabc
000001f0: b4bb 2cbd b328 14bd b42a 293d 3d3e bb3c
00000200: 21c2 343d 6b42 993c f930 32bc c881 f6bc
00000210: 08d9 e63c a0da cb3c 6ab8 22bd d17d bbbc
00000220: cdbe 95bc 8677 9f3c 852d 2a3d 4915 bab9
00000230: 7dc3 863c 1a8b ccbc 3c2f 0a3d a3c5 97b9
00000240: 6996 a23c 8456 2f3c 305a bcbc 5bb3 e83a
00000250: 1f26 1cbc 13dc b8bc ca18 b6bb 3921 103d
00000260: 95c6 b33c 2bd5 e0bb 0e5f 4d3b e152 ff3c
00000270: 42a3 babc bf7b 17bd e679 77bc 68da 683c
00000280: 29c1 f93c aab9 0ebc 002e c23b 544a f63c
00000290: 0c29 6e3b 43c4 8f3c d296 febb e8c4 0abd
000002a0: 0fb1 5c3b 513a 163c 4424 67bc d1f4 b83b
000002b0: 604e 4d3c ede4 1f3d fc40 95bc f1d1 6e3c
000002c0: 97fe 633b dc6d 0a3d 4dc3 16bd 0731 1b3d
000002d0: a562 b0bc de92 b9bc eb62 24bd 20ed ec3c
000002e0: f2ad 15bd f25c 87bb 789f f13c f850 87bc
000002f0: 2bc9 1c3d 8192 0a3d 052d a9bc 6bb0 2d3d
00000300: 3a43 82bc 62fe 47bc 5072 0bbd e062 193d
00000310: 8e8c 0abd 4573 453b cc40 ab3c 9c0a 9a3b
00000320: 6ed5 223d 69b2 b5bc bda9 a73c 9760 643a
00000330: 8375 13bd 50e5 303c 1672 2bbd 8411 143d
00000340: 5777 093d 0c39 9fbc dd71 ee3c 0bc5 28bd
00000350: 1a49 473c 74ac e6bc 4678 c63c 9002 26bd
00000360: 6762 b5bc 5eb3 e03c 551e b5bb 4993 d4bc
00000370: e23f 1bbd 693e eb3c 50e5 08bc 7a77 c03c
00000380: 20d5 4f3c e9ab 8a3b 03d2 063d e01e c4bc
00000390: 017a ab3c c3da a03c 17c9 2fbc 1a4e 463c
000003a0: 7787 123d c015 b43c 3f00 f0bc 5bb2 84bc
000003b0: 2769 22bc b75b 8abb afb0 02bd a58a 1d3d
000003c0: a5e5 463c b300 76bc 19e6 0d3d e4ea be3c
000003d0: 2d46 803a 7cdc 19bd 7ad3 e7bc 4812 583c
000003e0: fe41 853c 9893 f73c 3fb4 18bd 4fe3 9abc
000003f0: f098 c9bb 6acf af3c ebad d43c 4a8a 1b3d
0.0040198714 0.021676248 0.0075261467 -0.024518626 -0.0077769575 0.028824603 0.014327863 0.03574385
-0.03741965 -0.02387812 0.038791798 0.040081285 0.031876713 -0.043246202 0.031950288 0.036621153
0.015812544 -0.0036074237 -0.022724224 0.025363535 0.040387273 0.021882989 -0.011095117 0.0155177405
-0.01983971 -0.041754343 0.016356872 -0.019175353 0.012569208 0.007167093 0.022897629 0.020400427
0.04333456 0.036905244 0.0013319886 0.008485877 -0.0059164194 0.018055206 -0.0026405766 0.00061855407
0.017651284 -0.025722548 0.013641743 0.008180385 -0.0404639 -0.0078148125 0.013463906 0.006130399
-0.032433618 -0.01831912 0.030087825 0.0142333815 -0.03842606 0.006055846 0.01617701 0.004608176
0.004676599 0.005374392 -0.006807874 -0.0072233803 0.028382266 0.005619664 -0.029675236 0.041481763
-0.00038244008 -0.028469631 0.0020551642 0.0076740226 -0.020368027 -0.008590321 -0.011930186 0.010087522
-0.042005703 0.026849948 -0.01708918 -0.0006151122 0.005543761 -0.040201362 0.033173073 -0.023715978
-0.029512566 -0.019157346 -0.0028846462 -0.028707892 -0.026856028 0.017578302 -0.032284558 0.029518338
0.03295508 0.009064272 0.025009343 0.0011198785 0.022898339 0.027576147 0.009241665 -0.024012929
0.0025955932 -0.028004402 -0.0032909014 0.0068718167 -0.0038729163 0.03329796 -0.016107574 0.0025389444
-0.0015133455 -0.039091323 0.013049898 0.041708432 -0.00534794 0.020826355 -0.017604338 0.038807012
-0.022962455 0.041584246 -0.029889157 -0.014893748 -0.036880836 -0.039095752 -0.036641423 -0.018694332
0.013857061 0.033893835 0.026054276 -0.028643174 -0.042171195 -0.036171626 0.04130049 0.022856826
0.04413045 0.018708428 -0.010875934 -0.030091181 0.02817966 0.024884522 -0.039726652 -0.022887142
-0.018279457 0.019466173 0.041547317 -0.00035492543 0.016450638 -0.024968673 0.033736452 -0.00028948215
0.019847112 0.010701779 -0.022992224 0.0017753647 -0.009530573 -0.022565877 -0.0055571543 0.035187934
0.021945277 -0.006861349 0.0031337175 0.03116745 -0.022782926 -0.036983248 -0.015104746 0.014212228
0.030487614 -0.008711258 0.005925894 0.03006474 0.0036340384 0.01754964 -0.007769444 -0.03387919
0.003367487 0.009169177 -0.0141077675 0.0056444188 0.012530893 0.03903668 -0.018219464 0.014576421
0.0034789199 0.033796176 -0.036807347 0.037888553 -0.021531412 -0.02265304 -0.040133398 0.028921664
-0.03654284 -0.004130953 0.029494986 -0.016518101 0.038277786 0.033831123 -0.02065135 0.042404573
-0.015901197 -0.012206646 -0.034044564 0.03744781 -0.03382545 0.003012852 0.020904921 0.004700972
0.039754324 -0.0221798 0.02046668 0.0008711903 -0.03600074 0.01079686 -0.041856848 0.036149517
0.033561077 -0.019436382 0.029107029 -0.04120354 0.012163425 -0.028158404 0.024227273 -0.040529788
-0.022141648 0.027429279 -0.0055272975 -0.025949137 -0.03790272 0.028716283 -0.008355454 0.02349447
0.01268509 0.004231919 0.032915127 -0.023940504 0.0209322 0.019635564 -0.010729096 0.012103582
0.03577372 0.021983027 -0.029296992 -0.016198328 -0.009912766 -0.004222359 -0.03190678 0.0384623
0.012139712 -0.015014815 0.034643266 0.023305364 0.0009786539 -0.037563786 -0.028299082 0.013187952
0.01626682 0.030221745 -0.03728127 -0.018907217 -0.006152265 0.021461207 0.025961837 0.03797368
