reflexion/result/epoch_0007/critic.pth (torch, 3223 bytes, 1 tensors)

weight f4 [1, 512]
0.0058616255 0.023137081 0.0075261467 -0.02584794 -0.0077769575 0.029404169 0.014327863 0.035974666
-0.038304377 -0.024399964 0.04029678 0.042190332 0.03335423 -0.043866493 0.03245325 0.037400175
0.01625781 -0.0037130322 -0.023796463 0.026113622 0.041496713 0.023177642 -0.009985384 0.016599353
-0.02011944 -0.042587824 0.017297504 -0.01929854 0.012680399 0.006995815 0.023934515 0.020241447
0.043879367 0.037955407 0.0012741414 0.0088783065 -0.0060325256 0.018846763 -0.0023184444 0.00024297346
0.018000143 -0.026306594 0.014703253 0.008003929 -0.041448902 -0.008939067 0.014922999 0.0054567154
-0.03350274 -0.019370317 0.030389357 0.01567034 -0.040278923 0.004707109 0.01714695 0.005158821
0.0035150524 0.005374392 -0.006457696 -0.008182958 0.029448746 0.005870487 -0.029754221 0.043318838
-0.00030866772 -0.028939463 0.0017190276 0.0078008547 -0.02210882 -0.010101254 -0.012461859 0.009218781
-0.042690944 0.027430043 -0.017815873 -0.0006151122 0.0053365207 -0.040838543 0.03579405 -0.023965087
-0.031067936 -0.020303886 -0.0028846462 -0.02935633 -0.028165875 0.01853275 -0.032739144 0.02937048
0.034080464 0.009043902 0.02590051 0.0015849139 0.02455695 0.027932096 0.009797193 -0.02450168
0.0024735036 -0.029252062 -0.0026447636 0.008790464 -0.0057000765 0.034383904 -0.015382405 0.0030111193
-0.0019961009 -0.04064693 0.01369773 0.043330744 -0.0066606374 0.021596687 -0.018276248 0.039492283
-0.024701819 0.043572683 -0.030611958 -0.015254372 -0.036880836 -0.040686477 -0.03833583 -0.020445194
0.0138843255 0.034553304 0.026802825 -0.029931612 -0.043015506 -0.03709987 0.041970905 0.023845464
0.04413045 0.018950352 -0.011242113 -0.031240344 0.030000096 0.025708053 -0.040495556 -0.023552908
-0.018656349 0.020922936 0.043153852 0.00061382825 0.016789434 -0.024968673 0.034497 0.00051648763
0.01992869 0.011282595 -0.02328395 0.0017234281 -0.0106590055 -0.023377197 -0.005999634 0.035856817
0.022304896 -0.0062822932 0.0015383477 0.031400397 -0.022782926 -0.03774827 -0.0161669 0.014569728
0.030880447 -0.008711258 0.005576327 0.03128399 0.0043550404 0.018741556 -0.008440375 -0.034786206
0.002981538 0.009554754 -0.01451814 0.0047665522 0.012997746 0.039632335 -0.018917294 0.014865151
0.0037165298 0.035232585 -0.03722768 0.038967647 -0.022833893 -0.023461206 -0.040133398 0.030689195
-0.0378073 -0.0044735223 0.029494986 -0.017622482 0.03939073 0.03416021 -0.022291595 0.04329944
-0.016457954 -0.013949973 -0.034732774 0.039454848 -0.035217647 0.0037192723 0.020904921 0.004490813
0.041464854 -0.023062265 0.021160498 0.0014502693 -0.036634225 0.011380545 -0.043166835 0.03762761
0.03481056 -0.020600827 0.030444037 -0.042575356 0.0143152615 -0.028603781 0.025206415 -0.04126252
-0.022771847 0.028567523 -0.0051161773 -0.026320027 -0.03844686 0.029417045 -0.0072516534 0.024846414
0.012825802 0.0037076203 0.033867195 -0.025707187 0.021783551 0.021353243 -0.011186753 0.013496374
0.036168076 0.020490974 -0.030787276 -0.017242305 -0.009744316 -0.0054928036 -0.03291001 0.038266968
0.012105971 -0.015681788 0.03530356 0.0243025 0.0014890202 -0.038381185 -0.028823819 0.013295312
0.01636284 0.030801643 -0.03835128 -0.020508096 -0.006152265 0.021054452 0.026696699 0.03820418
00000000: e112 c03b fa89 bd3c e59d f63b 0fbf d3bc
00000010: d9d5 febb 03e1 f03c 6abf 6a3c 2c5a 133d
00000020: 0de5 1cbd 6fe2 c7bc 3d0e 253d c5cf 2c3d
00000030: 729e 083d 5aad 33bd b3ed 043d ed30 193d
00000040: 192f 853c 5856 73bb cdf0 c2bc 3cec d53c
00000050: 75f8 293d 0adf bd3c bc99 23bc 5efb 873c
00000060: 86d1 a4bc 9270 2ebd 7fb3 8d3c f917 9ebc
00000070: 73c1 4f3c 263d e53b 5112 c43c 64d1 a53c
00000080: daba 333d 2177 1b3d 1701 a73a 5176 113c
00000090: 7eac c5bb 8764 9a3c 0bf1 17bb b1c6 7e39
000000a0: 0975 933c ed80 d7bc eae5 703c e922 033c
000000b0: 53c6 29bd 2a75 12bc 987f 743c 3fce b23b
000000c0: 2b3a 09bd 80ae 9ebc 1af3 f83c 165f 803c
000000d0: 83fb 24bd 183e 9a3b c377 8c3c 540b a93b
000000e0: cb5c 663b ab1b b03b 159b d3bb d011 06bc
000000f0: 7f3e f13c 375d c03b 20bf f3bc 186f 313d
00000100: aed4 a1b9 7412 edbc ff50 e13a 509e ff3b
00000110: 8e1d b5bc bb7f 25bc d32c 4cbc 5f0a 173c
00000120: b3dc 2ebd f8b4 e03c 98f2 91bc 7b3f 21ba
00000130: fbdd ae3b 5146 27bd c89c 123d 6e52 c4bc
00000140: 2f82 febc 5654 a6bc 550c 3dbb b07c f0bc
00000150: 1fbc e6bc fed1 973c 7b19 06bd 5c9a f03c
00000160: f597 0b3d e02c 143c 4e2d d43c e3bc cf3a
00000170: a82b c93c dad1 e43c 6884 203c bfb7 c8bc
00000180: 811a 223b 05a2 efbc c553 2dbb e105 103c
00000190: b5c7 babb 23d6 0c3d 7c06 7cbc 3356 453b
000001a0: 04d1 02bb 657d 26bd 726c 603c 947b 313d
000001b0: 7a41 dabb 89eb b03c 12b8 95bc a9c2 213d
000001c0: 785b cabc 4579 323d eec5 fabc 79ed 79bc
000001d0: 5c10 17bd dda6 26bd 0806 1dbd ae7c a7bc
000001e0: 157b 633c c487 0d3d 9991 db3c 2433 f5bc
000001f0: 0731 30bd 09f6 17bd afe9 2b3d 9057 c33c
00000200: 21c2 343d c53d 9b3c d730 38bc c0eb ffbc
00000210: c3c2 f53c b299 d23c abde 25bd 07f2 c0bc
00000220: 33d5 98bc 9466 ab3c 18c2 303d 51e9 203a
00000230: ff89 893c 1a8b ccbc ba4c 0d3d e664 073a
00000240: 7e41 a33c a2da 383c fbbd bebc a7e4 e13a
00000250: 1ca3 2ebc 8981 bfbc 9498 c4bb 99de 123d
00000260: c2b8 b63c b2db cdbb 62a2 c93a b49d 003d
00000270: 42a3 babc ee9d 1abd 7270 84bc deb5 6e3c
00000280: fef8 fc3c aab9 0ebc 9fb9 b63b a423 003d
00000290: bab4 8e3b e487 993c 8049 0abc fb7b 0ebd
000002a0: e865 433b 8b8b 1c3c 7edd 6dbc bd30 9c3b
000002b0: 7ff4 543c 8455 223d 71f8 9abc f68c 733c
000002c0: 0691 733b 0b50 103d 0d7c 18bd 8a9c 1f3d
000002d0: 250e bbbc b731 c0bc eb62 24bd e867 fb3c
000002e0: d4db 1abd a096 92bb 789f f13c 065d 90bc
000002f0: 2d58 213d 94eb 0b3d dd9c b6bc c15a 313d
00000300: d5d2 86bc 6d8e 64bc f443 0ebd 689b 213d
00000310: 6140 10bd 09bf 733b cc40 ab3c ab27 933b
00000320: 0dd7 293d 13ed bcbc c858 ad3c f616 be3a
00000330: c50d 16bd 7775 3a3c b5cf 30bd 691f 1a3d
00000340: 8595 0e3d 11c3 a8bc c665 f93c 7f63 2ebd
00000350: 8f8a 6a3c 7a52 eabc af7d ce3c e302 29bd
00000360: 068c babc 7006 ea3c 9ba5 a7bb 199d d7bc
00000370: 747a 1dbd 04fc f03c 479f edbb b58a cb3c
00000380: 5023 523c 8cfb 723b 54b8 0a3d e197 d2bc
00000390: 6b73 b23c ffec ae3c a548 37bc e51f 5d3c
000003a0: fa24 143d b0dc a73c 9935 fcbc bc3f 8dbc
000003b0: a0a6 1fbc fafc b3bb a6cc 06bd d3bd 1c3d
000003c0: 1f58 463c 1877 80bc 779a 103d 0916 c73c
000003d0: 3a2b c33a 9735 1dbd ee1f ecbc 95d4 593c
000003e0: 5d0b 863c ba53 fc3c 3b16 1dbd 9800 a8bc
000003f0: f098 c9bb 637a ac3c 09b3 da3c fc7b 1c3d
