reflexion/result/epoch_0006/critic.pth (torch, 3223 bytes, 1 tensors)

weight f4 [1, 512]
000000 e1 12 c0 3b 39 85 bd 3c e5 9d f6 3b ad c4 d3 bc
       0.0058616255 0.023134815 0.0075261467 -0.025850618
000010 d9 d5 fe bb 03 e1 f0 3c 6a bf 6a 3c 2e 57 13 3d
       -0.0077769575 0.029404169 0.014327863 0.035971813
000020 0d e5 1c bd 6f e2 c7 bc e4 0b 25 3d ff cc 2c 3d
       -0.038304377 -0.024399964 0.040294543 0.042187687
000030 72 9e 08 3d 5a ad 33 bd b3 ed 04 3d d1 2d 19 3d
       0.03335423 -0.043866493 0.03245325 0.03739721
000040 19 2f 85 3c 21 84 73 bb f3 f5 c2 bc 36 e6 d5 3c
       0.01625781 -0.0037157612 -0.023798918 0.02611075
000050 75 f8 29 3d 36 d9 bd 3c 0c a4 23 bc 89 f6 87 3c
       0.041496713 0.023174863 -0.009987842 0.01659705
000060 86 d1 a4 bc 80 73 2e bd 7f b3 8d 3c 2d 1e 9e bc
       -0.02011944 -0.042590618 0.017297504 -0.019301498
000070 33 b5 4f 3c 31 24 e5 3b 51 12 c4 3c 92 cb a5 3c
       0.012677479 0.0069928397 0.023934515 0.020238671
000080 da ba 33 3d 21 77 1b 3d 17 01 a7 3a f3 6a 11 3c
       0.043879367 0.037955407 0.0012741414 0.008875596
000090 7e ac c5 bb 15 5e 9a 3c 4d 1c 18 bb 38 c0 7b 39
       -0.0060325256 0.01884369 -0.0023210228 0.00024008832
0000a0 2a 6f 93 3c 11 87 d7 bc 6b da 70 3c e9 22 03 3c
       0.017997343 -0.026309522 0.014700512 0.008003929
0000b0 53 c6 29 bd 2a 75 12 bc 00 74 74 3c 3f ce b2 3b
       -0.041448902 -0.008939067 0.014920235 0.0054567154
0000c0 88 3c 09 bd 8c b4 9e bc 1a f3 f8 3c 16 5f 80 3c
       -0.033504993 -0.0193732 0.030389357 0.01567034
0000d0 82 fe 24 bd 02 27 9a 3b c3 77 8c 3c b4 f3 a8 3b
       -0.04028178 0.004704357 0.01714695 0.005156005
0000e0 cb 5c 66 3b ab 1b b0 3b d9 b4 d3 bb d0 11 06 bc
       0.0035150524 0.005374392 -0.0064607677 -0.008182958
0000f0 cf 38 f1 3c 37 5d c0 3b 76 c5 f3 bc 4d 6c 31 3d
       0.029446034 0.005870487 -0.029757243 0.043316174
000100 ae d4 a1 b9 74 12 ed bc ff 50 e1 3a 50 9e ff 3b
       -0.00030866772 -0.028939463 0.0017190276 0.0078008547
000110 8e 1d b5 bc b8 8d 25 bc d3 2c 4c bc b7 fe 16 3c
       -0.02210882 -0.010104589 -0.012461859 0.009216002
000120 aa df 2e bd 6a b5 e0 3c 98 f2 91 bc 7b 3f 21 ba
       -0.04269377 0.027430255 -0.017815873 -0.0006151122
000130 99 c6 ae 3b 4f 49 27 bd c8 9c 12 3d 6e 52 c4 bc
       0.0053337333 -0.040841397 0.03579405 -0.023965087
000140 83 87 fe bc 30 5a a6 bc 55 0c 3d bb 83 82 f0 bc
       -0.031070476 -0.020306677 -0.0028846462 -0.029359108
000150 75 c2 e6 bc fe d1 97 3c 38 1c 06 bd a0 94 f0 3c
       -0.028168896 0.01853275 -0.032741755 0.029367745
000160 27 95 0b 3d e0 2c 14 3c ac 27 d4 3c c2 5f cf 3a
       0.03407779 0.009043902 0.025897823 0.0015821385
000170 a4 25 c9 3c da d1 e4 3c b9 7c 20 3c bf b7 c8 bc
       0.024554081 0.027932096 0.009795361 -0.02450168
000180 81 1a 22 3b 7f a7 ef bc 4f 82 2d bb 7a fb 0f 3c
       0.0024735036 -0.029254673 -0.0026475375 0.008787984
000190 b5 c7 ba bb 53 d3 0c 3d 5d 12 7c bc 99 28 45 3b
       -0.0057000765 0.034381222 -0.0153852375 0.0030084013
0001a0 28 01 03 bb 56 80 26 bd 72 6c 60 3c b5 78 31 3d
       -0.0019989703 -0.040649734 0.01369773 0.043328006
0001b0 b8 5e da bb f6 e5 b0 3c 12 b8 95 bc a9 c2 21 3d
       -0.0066641234 0.021594029 -0.018276248 0.039492283
0001c0 8b 61 ca bc 46 76 32 3d e6 cb fa bc 79 ed 79 bc
       -0.024704715 0.043569826 -0.030614804 -0.015254372
0001d0 5c 10 17 bd b0 a9 26 bd 0e 09 1d bd ae 7c a7 bc
       -0.036880836 -0.04068917 -0.038338713 -0.020445194
0001e0 d9 6e 63 3c c4 87 0d 3d ce 8b db 3c 30 39 f5 bc
       0.013881409 0.034553304 0.026800063 -0.029934496
0001f0 07 31 30 bd 1e f9 17 bd 82 e6 2b 3d 90 57 c3 3c
       -0.043015506 -0.03710281 0.041967876 0.023845464
000200 21 c2 34 3d da 37 9b 3c d7 30 38 bc c0 eb ff bc
       0.04413045 0.01894753 -0.011242113 -0.031240344
000210 47 bd f5 3c e5 94 d2 3c 48 e1 25 bd fb f7 c0 bc
       0.029997481 0.025705764 -0.040498048 -0.023555746
000220 33 d5 98 bc 46 66 ab 3c 4a bf 30 3d 88 36 20 3a
       -0.018656349 0.020922791 0.043151177 0.00061116414
000230 34 85 89 3c 1a 8b cc bc e2 49 0d 3d b0 b3 06 3a
       0.016787149 -0.024968673 0.03449429 0.000513847
000240 a2 3b a3 3c a2 da 38 3c e6 c3 be bc 2f 72 e1 3a
       0.019925896 0.011282595 -0.023286771 0.0017200167
000250 68 af 2e bc 89 81 bf bc 04 b1 c4 bb 99 de 12 3d
       -0.010661937 -0.023377197 -0.006002547 0.035856817
000260 c2 b8 b6 3c b2 db cd bb e0 43 c9 3a d9 9a 00 3d
       0.022304896 -0.0062822932 0.0015355311 0.031397674
000270 42 a3 ba bc d0 a0 1a bd b1 76 84 bc de b5 6e 3c
       -0.022782926 -0.03775102 -0.016169878 0.014569728
000280 fe f8 fc 3c aa b9 0e bc d3 a1 b6 3b 18 21 00 3d
       0.030880447 -0.008711258 0.00557349 0.03128156
000290 d1 9c 8e 3b 43 82 99 3c 80 49 0a bc 0a 7f 0e bd
       0.00435219 0.018738871 -0.008440375 -0.034789123
0002a0 d1 3b 43 3b 8b 8b 1c 3c 7e dd 6d bc cb 18 9c 3b
       0.0029790292 0.009554754 -0.01451814 0.0047636977
0002b0 d2 e8 54 3c 84 55 22 3d 5e fe 9a bc f6 8c 73 3c
       0.012994962 0.039632335 -0.01892012 0.014865151
0002c0 94 66 73 3b 2b 4d 10 3d 0d 7c 18 bd 8a 9c 1f 3d
       0.0037139999 0.035229843 -0.03722768 0.038967647
0002d0 5b 14 bb bc 45 37 c0 bc eb 62 24 bd ba 6a fb 3c
       -0.022836855 -0.023463855 -0.040133398 0.03069054
0002e0 d4 de 1a bd 77 af 92 bb 78 9f f1 3c 06 5d 90 bc
       -0.03781016 -0.0044764834 0.029494986 -0.017622482
0002f0 4f 55 21 3d c0 e8 0b 3d dd 9c b6 bc f6 57 31 3d
       0.039387997 0.034157515 -0.022291595 0.043296777
000300 d5 d2 86 bc fb 9a 64 bc f4 43 0e bd c5 98 21 3d
       -0.016457954 -0.013952966 -0.034732774 0.039452333
000310 7e 43 10 bd 04 99 73 3b cc 40 ab 3c 41 11 93 3b
       -0.035220616 0.0037170062 0.020904921 0.004488141
000320 7c d4 29 3d 13 ed bc bc 6d 52 ad 3c 67 b8 bd 3a
       0.041462407 -0.023062265 0.021157468 0.0014474512
000330 5e 10 16 bd 20 6a 3a 3c 1f d0 30 bd 69 1f 1a 3d
       -0.036636703 0.011377841 -0.04316723 0.03762761
000340 9e 92 0e 3d 65 c9 a8 bc 6a 62 f9 3c 7f 63 2e bd
       0.034807794 -0.020603845 0.030442435 -0.042575356
000350 8f 8a 6a 3c 7a 52 ea bc c9 77 ce 3c e3 02 29 bd
       0.0143152615 -0.028603781 0.025203602 -0.04126252
000360 06 8c ba bc 70 06 ea 3c 95 bd a7 bb 19 9d d7 bc
       -0.022771847 0.028567523 -0.0051190355 -0.026320027
000370 74 7a 1d bd 04 fc f0 3c 53 b8 ed bb 1e 85 cb 3c
       -0.03844686 0.029417045 -0.007254639 0.024843749
000380 50 23 52 3c 6b ce 72 3b 18 b5 0a 3d f3 9d d2 bc
       0.012825802 0.0037049304 0.03386411 -0.025710082
000390 f4 6d b2 3c ab e7 ae 3c a5 48 37 bc e5 1f 5d 3c
       0.021780945 0.021350702 -0.011186753 0.013496374
0003a0 fa 24 14 3d 02 d7 a7 3c 48 3c fc bc d0 44 8d bc
       0.036168076 0.020488266 -0.030790463 -0.017244726
0003b0 10 ad 1f bc fa fc b3 bb 98 cf 06 bd d3 bd 1c 3d
       -0.009745851 -0.0054928036 -0.03291282 0.038266968
0003c0 1f 58 46 3c 18 77 80 bc dd 97 10 3d 09 16 c7 3c
       0.012105971 -0.015681788 0.035301078 0.0243025
0003d0 71 cc c2 3a 97 35 1d bd ea 25 ec bc 95 d4 59 3c
       0.0014861954 -0.038381185 -0.028826673 0.013295312
0003e0 68 05 86 3c ba 53 fc 3c 2b 19 1d bd 29 08 a8 bc
       0.01636 0.030801643 -0.03835408 -0.020511704
0003f0 f0 98 c9 bb 63 7a ac 3c d6 ad da 3c fc 7b 1c 3d
       -0.006152265 0.021054452 0.02669422 0.03820418
