reflexion/result/epoch_0012/critic.pth (torch, 3223 bytes, 1 tensors)

weight f4 [1, 512]
0.0034601062 0.021894505 0.0075261467 -0.024132123 -0.0077769575 0.028750466 0.014327863 0.035606697
-0.03631111 -0.023977088 0.037441265 0.040515807 0.032189593 -0.042802252 0.03170867 0.035745814
0.015574911 -0.0037430692 -0.022318538 0.024911858 0.03918274 0.02088985 -0.010734986 0.015791973
-0.018687097 -0.03974489 0.016186697 -0.019477414 0.012463308 0.006952745 0.022197 0.020080818
0.042994216 0.036732275 0.0018420473 0.008078934 -0.0053886436 0.017784653 -0.00247898 0.0003050957
0.017546777 -0.025130864 0.013517121 0.0070473193 -0.040381696 -0.00799044 0.013787843 0.005418446
-0.031924114 -0.01712698 0.029833067 0.014441964 -0.038962606 0.0049523767 0.016317954 0.0047103595
0.0036143283 0.005374392 -0.006091092 -0.006845626 0.02834168 0.005514236 -0.029005202 0.040538564
-0.00060384703 -0.028257255 0.0021593715 0.0078008547 -0.020534074 -0.008210777 -0.011614359 0.009547594
-0.041131526 0.026096428 -0.017424284 -0.0006151122 0.0055855396 -0.0403445 0.034353007 -0.023553714
-0.02905652 -0.019055055 -0.0030389954 -0.02831779 -0.026877455 0.017432217 -0.03165052 0.027959755
0.03258168 0.009405434 0.025128396 4.139723e-05 0.023158262 0.027727472 0.00899441 -0.02270394
0.0021197244 -0.027445616 -0.003871036 0.006080105 -0.0035693466 0.032090068 -0.015385523 0.0023369777
-0.0016664596 -0.038472645 0.013538104 0.04214266 -0.0058627184 0.020382682 -0.01652013 0.03844743
-0.022498412 0.041864984 -0.029647855 -0.014130769 -0.036880836 -0.03948844 -0.03671663 -0.019472461
0.013443042 0.032910936 0.024873493 -0.027697392 -0.041768488 -0.035762437 0.04059385 0.023083374
0.04413045 0.017472772 -0.010981537 -0.029810918 0.02834898 0.023722127 -0.039558623 -0.022786265
-0.018252812 0.019369699 0.041387215 -0.0023389389 0.01588162 -0.024968673 0.03280246 6.379083e-06
0.019351086 0.01049179 -0.022963239 0.0016959821 -0.009621866 -0.022747556 -0.005933373 0.035036046
0.022189239 -0.0066656237 0.00030924965 0.03027549 -0.022616195 -0.03685801 -0.014930188 0.013460289
0.030270401 -0.008711258 0.005655016 0.03006791 0.0034684145 0.018447988 -0.0069319806 -0.033341732
0.002684206 0.008747513 -0.014396166 0.005915062 0.012532973 0.03911178 -0.018250806 0.01408549
0.0026842486 0.033621904 -0.036269523 0.03669173 -0.019865064 -0.021320848 -0.040133398 0.029487934
-0.03687241 -0.004216245 0.029329292 -0.015989251 0.037633356 0.032781646 -0.021396747 0.041963216
-0.015822543 -0.012435979 -0.033783432 0.037430953 -0.032916017 0.0029048626 0.019791514 0.004927811
0.040166315 -0.02206389 0.019863646 0.000119084085 -0.035441205 0.011480418 -0.042316243 0.036942385
0.033680234 -0.018701829 0.028389765 -0.040901966 0.01270292 -0.027177408 0.024325602 -0.04015458
-0.021882812 0.027443526 -0.005546397 -0.026259493 -0.038080793 0.02883526 -0.008168399 0.02319458
0.012364052 0.0049355486 0.031623192 -0.02342495 0.020035645 0.020036342 -0.010780996 0.011930845
0.034274645 0.021724422 -0.029471982 -0.01633222 -0.009473784 -0.0041221613 -0.031547323 0.035968505
0.011946016 -0.014386555 0.034456503 0.023018934 0.0008717254 -0.036673706 -0.027922949 0.013351072
0.016451202 0.03019032 -0.03615486 -0.019136792 -0.0057438216 0.020629518 0.02605869 0.037788834
00000000: f3c2 623b 1b5c b33c e59d f63b bbb0 c5bc
00000010: d9d5 febb 1986 eb3c 6abf 6a3c 54d8 113d
00000020: f5ba 14bd 996b c4bc 035c 193d e7f3 253d
00000030: 3cd9 033d 6a51 2fbd f3e0 013d 346a 123d
00000040: e92d 7f3c 484e 75bb 5ed5 b6bc f413 cc3c
00000050: 157e 203d 3121 ab3c cbe1 2fbc 2b5e 813c
00000060: af15 99bc 8acb 22bd f799 843c 198f 9fbc
00000070: e732 4c3c dad3 e33b 7cd6 b53c 8780 a43c
00000080: b41a 303d 9574 163d da70 f13a 815d 043c
00000090: 3893 b0bb 1fb1 913c 6276 22bb 40f5 9f39
000000a0: 42be 8f3c 3edf cdbc ea76 5d3c 33ed e63b
000000b0: 4767 25bd 56ea 02bc 68e6 613c 388d b13b
000000c0: dcc2 02bd e14d 8cbc 7a64 f43c fd9d 6c3c
000000d0: 4197 1fbd 8c47 a23b 3bad 853c 5c59 9a3b
000000e0: 5ede 6c3b ab1b b03b c897 c7bb 4651 e0bb
000000f0: d02c e83c c4b0 b43b 519c edbc c40b 263d
00000100: 7d4b 1eba c27b e7bc 3e84 0d3b 509e ff3b
00000110: 1337 a8bc 7f86 06bc 274a 3ebc 836d 1c3c
00000120: 8879 28bd 2dc8 d53c 5fbd 8ebc 7b3f 21ba
00000130: e706 b73b 4640 25bd bdb5 0c3d b8f3 c0bc
00000140: f007 eebc 5919 9cbc e229 47bb b6fa e7bc
00000150: 1c2e dcbc 02ce 8e3c faa3 01bd db0b e53c
00000160: 5e74 053d 4019 1a3c 11da cd3c f0a1 2d38
00000170: 65b6 bd3c b924 e33c 4a5d 133c 9dfd b9bc
00000180: 13eb 0a3b a1d5 e0bc 35b1 7dbb 9e3b c73b
00000190: b3eb 69bb e070 033d 9013 7cbc fb27 193b
000001a0: 1b6d daba 7e95 1dbd ecce 5d3c c89d 2c3d
000001b0: 0c1c c0bb 95f9 a63c 3955 87bc 0d7b 1d3d
000001c0: 974e b8bc 9e7a 2b3d 0fe0 f2bc be84 67bc
000001d0: 5c10 17bd a1be 21bd 2d64 16bd b684 9fbc
000001e0: 3440 5c3c 9ecd 063d 7fc3 cb3c a4e5 e2bc
000001f0: 6f15 2bbd a27b 12bd bd45 263d 5819 bd3c
00000200: 21c2 343d 0f23 8f3c e8eb 33bc 0736 f4bc
00000210: 1f3c e83c e854 c23c 3908 22bd 43aa babc
00000220: ec86 95bc 34ad 9e3c a485 293d e248 19bb
00000230: 2c1a 823c 1a8b ccbc df5b 063d e80b d636
00000240: 2b86 9e3c c2e5 2b3c 671d bcbc b74b de3a
00000250: 08a5 1dbc 1559 babc bd6c c2bb f581 0f3d
00000260: 35c6 b53c 4e6b dabb c922 a239 4e04 f83c
00000270: 9945 b9bc 6df8 16bd bf9d 74bc 8b88 5c3c
00000280: a2f9 f73c aab9 0ebc b64d b93b fa50 f63c
00000290: 574e 633b 3c20 973c ab25 e3bb 5791 08bd
000002a0: 81e9 2f3b bb51 0f3c e6dd 6bbc 23d3 c13b
000002b0: 1957 4d3c ac33 203d b782 95bc d4c6 663c
000002c0: 38ea 2f3b 1fb7 093d 5a8f 14bd 114a 163d
000002d0: 0fbc a2bc 0fa9 aebc eb62 24bd ae90 f13c
000002e0: 8607 17bd 6d28 8abb fc43 f03c e4fb 82bc
000002f0: 6f25 1a3d 0c46 063d 3b48 afbc 9fe1 2b3d
00000300: 479e 81bc 47c0 4bbc 7f60 0abd 3351 193d
00000310: f2d2 06bd 825f 3e3b d021 a23c 7a79 a13b
00000320: 6f85 243d 55bf b4bc 16b9 a23c c8bc f938
00000330: cc2a 11bd 5d18 3c3c cc53 2dbd e650 173d
00000340: 49f4 093d 9434 99bc a791 e83c d288 27bd
00000350: e81f 503c 28a3 debc 7c46 c73c 2179 24bd
00000360: 9543 b3bc 3fd1 e03c 8dbe b5bb 261e d7bc
00000370: 9bfa 1bbd ec37 ec3c c0d4 05bc 8f02 be3c
00000380: 9892 4a3c 62ba a13b 5287 013d aee5 bfbc
00000390: cb21 a43c 4123 a43c c6a2 30bc 9779 433c
000003a0: 9263 0c3d 6af7 b13c 3a6f f1bc 26cb 85bc
000003b0: ee37 1bbc 3213 87bb c437 01bd b653 133d
000003c0: 39b9 433c 96b5 6bbc 4322 0d3d 3492 bc3c
000003d0: 8084 643a 2b37 16bd abbe e4bc 74be 5a3c
000003e0: acc4 863c b151 f73c 1e17 14bd c3c4 9cbc
000003f0: ab36 bcbb 3cff a83c 0979 d53c 77c8 1a3d
