reflexion/result/e3-actonly-gen-step1500/critic.pth (torch, 3223 bytes, 1 tensors)

weight f4 [1, 512]
00000000: acd7 ce3b e9eb bc3c e59d f63b 20a6 d2bc
00000010: a6b0 fabb 4e0c e93c 6abf 6a3c ce92 103d
00000020: 7866 1dbd 90e0 c6bc 7add 233d 149e 2a3d
00000030: b248 083d 4d78 33bd 0003 063d 1e48 183d
00000040: d860 863c a7cc 6ebb 8b50 c3bc ccb6 ce3c
00000050: ac42 283d af2d ba3c 5b7f 2abc 4faf 853c
00000060: 86d1 a4bc adf8 2cbd 13b5 8c3c 3add a0bc
00000070: c9db 493c 303e dd3b ac8d bd3c 11b2 a33c
00000080: daba 333d e489 1a3d cf7b 9e3a b527 0e3c
00000090: 7eac c5bb 08ac 983c ddb7 0cbb 029f 2db9
000000a0: 6001 913c 8433 d6bc 204b 703c fda6 fc3b
000000b0: 84b3 28bd e239 14bc 3294 703c f766 9e3b
000000c0: 5037 0abd d549 9fbc a8e3 f63c e79c 883c
000000d0: 4b6c 25bd 2095 9a3b 2d73 8a3c a81d a43b
000000e0: 8f0a 533b ab1b b03b b793 d0bb d011 06bc
000000f0: 6df7 e93c 375d c03b 4494 f4bc c4b6 303d
00000100: aed4 a1b9 5cf8 e9bc e1e9 3e3b 509e ff3b
00000110: 97f7 b1bc 25ce 2bbc 2d0b 4fbc 272b 123c
00000120: 3010 30bd 76a8 e03c 4209 91bc 7b3f 21ba
00000130: fdfc a33b f521 28bd 97e4 113d 2fa4 bebc
00000140: e75b fcbc f808 a6bc 550c 3dbb 2db6 efbc
00000150: 9de8 e8bc 7e58 933c 03e1 05bd 3979 ec3c
00000160: 3cbe 093d 06d9 183c 5c50 d33c df50 aa3a
00000170: 5773 c73c dad1 e43c d31d 1e3c 4985 c8bc
00000180: 811a 223b b7b1 efbc 7e85 3abb c1ca 143c
00000190: 92a3 bbbb 2813 0c3d 8234 83bc 5a96 2c3b
000001a0: 55cf 10bb d0ce 27bd 8948 633c 8ad6 2f3d
000001b0: 1b47 e3bb 8057 af3c 705a 95bc 970b 223d
000001c0: bea4 cbbc bfae 313d abd1 fabc 7b41 78bc
000001d0: 5c10 17bd f3bd 26bd 5415 1dbd dc79 a7bc
000001e0: ccba 5b3c 334c 0d3d f04b d93c 6bf1 f6bc
000001f0: a6e2 2ebd 6d8f 18bd b07d 283d 9057 c33c
00000200: 21c2 343d 2205 9a3c fc9d 35bc 61f5 febc
00000210: 8110 f43c 7dd8 cb3c fa4c 23bd 0902 c3bc
00000220: b93e 98bc 6bba aa3c 25f6 2e3d 9785 f039
00000230: 626c 873c f2ef ccbc 4ea5 0c3d d35b 7b39
00000240: 914e a03c 8c32 373c 1553 c0bc 48d2 ce3a
00000250: 393a 2ebc 8981 bfbc 7284 c4bb 53ec 103d
00000260: c2b8 b63c b2db cdbb 305a 563a ac6a fa3c
00000270: 42a3 babc 815b 1bbd 31d3 85bc deb5 6e3c
00000280: fef8 fc3c aab9 0ebc 6eab b53b cfa3 ff3c
00000290: ab04 833b 4532 933c 1757 0dbc 11a0 0fbd
000002a0: 7d9f 283b 20ae 153c 0085 65bc 1d34 9c3b
000002b0: 1c00 4d3c b71c 223d 886c 9cbc f68c 733c
000002c0: 403c 613b fcc4 0f3d 0d7c 18bd a3ae 1e3d
000002d0: 4be6 b9bc ebe6 c2bc eb62 24bd 2eeb fa3c
000002e0: ccae 1abd 227d 9dbb 789f f13c 7929 8dbc
000002f0: d9d4 1d3d e8f8 083d 82a0 b5bc 3df0 2e3d
00000300: 97a7 83bc a28b 66bc 06eb 0dbd 3aa0 1d3d
00000310: b607 11bd bad6 753b 7743 aa3c 9d38 8a3b
00000320: 6a59 293d bd6b bdbc 245c aa3c 546f 993a
00000330: a52c 16bd 11c9 353c 1f63 30bd e247 193d
00000340: e2b0 0b3d 354c acbc 401d f53c 4926 2ebd
00000350: 8f8a 6a3c 83db e9bc dd1b cd3c 42b5 28bd
00000360: 3bec b7bc e2d8 e83c 1d43 b6bb 5e61 d6bc
00000370: 747a 1dbd 3af0 ee3c 2e55 efbb 3a83 c73c
00000380: f180 4f3c 1672 473b e91a 0a3d c8c6 d0bc
00000390: 2028 b13c 119f ad3c 2dc1 35bc 3793 5f3c
000003a0: c968 133d 4c49 a53c f7ca fdbc 19cf 8cbc
000003b0: 102b 21bc 1b1e aabb 39ec 07bd 0c44 1a3d
000003c0: 1f58 463c 23e2 85bc 292f 103d dbc0 c33c
000003d0: e0a7 683a c220 1bbd 127e edbc 95d4 593c
000003e0: 7a8c 833c 60a5 fb3c 9114 1ebd 3023 aabc
000003f0: a86d c4bb 1461 a73c 0197 d53c 9da4 1b3d
0.006312331 0.02306171 0.0075261467 -0.02571398 -0.0076504527 0.02844825 0.014327863 0.035296254
-0.0384278 -0.024277002 0.04000614 0.04165466 0.033272453 -0.0438159 0.032717705 0.03717815
0.0164036 -0.00364379 -0.023842117 0.025233649 0.04107921 0.022726862 -0.0104063405 0.016318945
-0.02011944 -0.042229343 0.017176187 -0.019636739 0.012320467 0.006751798 0.023138843 0.01998237
0.043879367 0.03772916 0.0012091341 0.008676459 -0.0060325256 0.018636718 -0.0021471896 -0.000165578
0.017700851 -0.026147611 0.014666349 0.0077103362 -0.041186824 -0.009047003 0.01468377 0.0048340517
-0.033744156 -0.019444386 0.030137852 0.01667638 -0.04038648 0.004717484 0.016900623 0.005008418
0.0032202338 0.005374392 -0.006365265 -0.008182958 0.028560365 0.005870487 -0.029855855 0.04314305
-0.00030866772 -0.02856081 0.0029131102 0.0078008547 -0.021724505 -0.01048616 -0.012636942 0.008921421
-0.042984188 0.027424078 -0.01770461 -0.0006151122 0.005004524 -0.04104801 0.03561839 -0.023271648
-0.030805541 -0.020267949 -0.0028846462 -0.029261673 -0.028431231 0.017986532 -0.03268529 0.028866397
0.033628687 0.009329086 0.025795154 0.0012994072 0.02434699 0.027932096 0.009650665 -0.024477618
0.0024735036 -0.029259546 -0.0028460915 0.009081543 -0.005726286 0.034197956 -0.016016249 0.0026334734
-0.0022096236 -0.040968716 0.013872274 0.04292921 -0.0069359667 0.021404028 -0.0182316 0.039561834
-0.024858829 0.04337954 -0.030617556 -0.0151523305 -0.036880836 -0.040708493 -0.03835042 -0.02044385
0.013411235 0.034496497 0.026525468 -0.030144414 -0.042696618 -0.037246156 0.04113549 0.023845464
0.04413045 0.018801276 -0.01108503 -0.031122865 0.029793026 0.024883503 -0.039868332 -0.023804681
-0.018584596 0.020840844 0.04271521 0.000458759 0.016531173 -0.025016759 0.034337334 0.00023971433
0.019568713 0.011181485 -0.023477117 0.0015779221 -0.010633999 -0.023377197 -0.005997234 0.035381626
0.022304896 -0.0062822932 0.0008176891 0.030568443 -0.022782926 -0.03792906 -0.016336055 0.014569728
0.030880447 -0.008711258 0.0055441177 0.03120604 0.003998359 0.017968306 -0.008626721 -0.03506476
0.0025729828 0.009135753 -0.01400876 0.0047669546 0.012512233 0.039578166 -0.01909472 0.014865151
0.0034368187 0.03509997 -0.03722768 0.038740765 -0.02269282 -0.02379175 -0.040133398 0.03062972
-0.037764356 -0.0048061768 0.029494986 -0.01723169 0.038533065 0.0334405 -0.022171263 0.042709578
-0.016071124 -0.014071377 -0.034647964 0.038482882 -0.035407744 0.003751202 0.020784123 0.0042181746
0.041345038 -0.023122663 0.02079589 0.0011706152 -0.03666367 0.011095301 -0.04306328 0.03742207
0.034104235 -0.021032432 0.029921174 -0.04251698 0.0143152615 -0.028547054 0.0250377 -0.041188486
-0.02245151 0.02842373 -0.0055621997 -0.026169475 -0.03844686 0.029167283 -0.0073038554 0.024354566
0.012665019 0.003043299 0.03371707 -0.025485411 0.021625578 0.021194013 -0.01109342 0.013645939
0.035988603 0.020176552 -0.03098057 -0.017188596 -0.009836927 -0.005191577 -0.033184264 0.03766255
0.012105971 -0.016343182 0.035201225 0.023895672 0.0008875113 -0.037873037 -0.02899078 0.013295312
0.016058195 0.030718505 -0.038593832 -0.020768732 -0.0059945174 0.020432033 0.02607298 0.037998784
