reflexion/result/epoch_0002/critic.pth (torch, 3223 bytes, 1 tensors)

weight f4 [1, 512]
0	0x3bc012e1	0.0058616255
1	0x3cbd7fa2	0.02313215
2	0x3bf69de5	0.0075261467
3	0xbcd3d373	-0.025857663
4	0xbbfed5d9	-0.0077769575
5	0x3cf0e103	0.029404169
6	0x3c6abf6a	0.014327863
7	0x3d135132	0.035966106
8	0xbd1ce50d	-0.038304377
9	0xbcc7e26f	-0.024399964
10	0x3d250c53	0.040294956
11	0x3d2ccb04	0.0421858
12	0x3d089e72	0.03335423
13	0xbd33ad5a	-0.043866493
14	0x3d04edb3	0.03245325
15	0x3d19280a	0.0373917
16	0x3c852f19	0.01625781
17	0xbb73cbe7	-0.0037200393
18	0xbcc30c0f	-0.02380946
19	0x3cd5dc37	0.026105983
20	0x3d29f875	0.041496713
21	0x3cbdcf95	0.023170272
22	0xbc23b10a	-0.00999094
23	0x3c87ee74	0.016593195
24	0xbca4d186	-0.02011944
25	0xbd2e79ba	-0.042596556
26	0x3c8db37f	0.017297504
27	0xbc9e2b36	-0.019307714
28	0x3c4f9f96	0.012672326
29	0x3be4f074	0.006986672
30	0x3cc41251	0.023934515
31	0x3ca5c0f6	0.020233613
32	0x3d33bada	0.043879367
33	0x3d1b7721	0.037955407
34	0x3aa70117	0.0012741414
35	0x3c1158ac	0.008871239
36	0xbbc5ac7e	-0.0060325256
37	0x3c9a519d	0.018837744
38	0xbb187f81	-0.0023269358
39	0x3975e315	0.00023449615
40	0x3c93644d	0.017992163
41	0xbcd792c6	-0.026315104
42	0x3c70c855	0.0146962
43	0x3c0322e9	0.008003929
44	0xbd29c653	-0.041448902
45	0xbc12752a	-0.008939067
46	0x3c745ef6	0.014915219
47	0x3bb2ce3f	0.0054567154
48	0xbd094b33	-0.03351898
49	0xbc9ec224	-0.019379683
50	0x3cf8f31a	0.030389357
51	0x3c805f16	0.01567034
52	0xbd25063d	-0.040289152
53	0x3b99f067	0.0046978476
54	0x3c8c77c3	0.01714695
55	0x3ba8c61e	0.0051505705
56	0x3b665ccb	0.0035150524
57	0x3bb01bab	0.005374392
58	0xbbd3d514	-0.00646461
59	0xbc0611d0	-0.008182958
60	0x3cf13044	0.02944196
61	0x3bc05d37	0.005870487
62	0xbcf3d00a	-0.029762287
63	0x3d316a04	0.043313995
64	0xb9a1d4ae	-0.00030866772
65	0xbced1274	-0.028939463
66	0x3ae150ff	0.0017190276
67	0x3bff9e50	0.0078008547
68	0xbcb51d8e	-0.02210882
69	0xbc25b8e5	-0.010114883
70	0xbc4c2cd3	-0.012461859
71	0x3c16e874	0.009210695
72	0xbd2ee5aa	-0.042699493
73	0x3ce0bb42	0.027433041
74	0xbc91f298	-0.017815873
75	0xba213f7b	-0.0006151122
76	0x3bae9afb	0.0053285337
77	0xbd274f47	-0.04084709
78	0x3d129cc8	0.03579405
79	0xbcc4526e	-0.023965087
80	0xbcfe9670	-0.031077594
81	0xbca66584	-0.020312078
82	0xbb3d0c55	-0.0028846462
83	0xbcf08def	-0.029364554
84	0xbce6d0bc	-0.028175704
85	0x3c97d1fe	0.01853275
86	0xbd061ae7	-0.0327405
87	0x3cf08990	0.02936247
88	0x3d0b9082	0.03407336
89	0x3c142ce0	0.009043902
90	0x3cd421d1	0.025895031
91	0x3aceca44	0.0015776833
92	0x3cc91a4f	0.024548678
93	0x3ce4d1da	0.027932096
94	0x3c207f9f	0.009796052
95	0xbcc8b7bf	-0.02450168
96	0x3b221a81	0.0024735036
97	0xbcefc871	-0.029270383
98	0xbb2dd4ce	-0.0026524547
99	0x3c0feea8	0.008784927
100	0xbbbac7b5	-0.0057000765
101	0x3d0ccf04	0.034377113
102	0xbc7c2d62	-0.0153916795
103	0x3b44dc09	0.0030038378
104	0xbb036565	-0.002004945
105	0xbd268778	-0.040656537
106	0x3c606c72	0.01369773
107	0x3d3173e2	0.043323405
108	0xbbdad64d	-0.0066783787
109	0x3cb0e37c	0.021592848
110	0xbc95b812	-0.018276248
111	0x3d21c2a9	0.039492283
112	0xbcca6ee6	-0.024711084
113	0x3d3270e8	0.043564707
114	0xbcfad6c6	-0.03061999
115	0xbc79ed79	-0.015254372
116	0xbd17105c	-0.036880836
117	0xbd26af3a	-0.040694453
118	0xbd1d104b	-0.038345616
119	0xbca77cae	-0.020445194
120	0x3c63579c	0.013875868
121	0x3d0d87c4	0.034553304
122	0x3cdb81e8	0.026795343
123	0xbcf545d4	-0.029940523
124	0xbd303107	-0.043015506
125	0xbd180001	-0.03710938
126	0x3d2be07b	0.041962128
127	0x3cc35790	0.023845464
128	0x3d34c221	0.04413045
129	0x3c9b2d35	0.018942455
130	0xbc3830d7	-0.011242113
131	0xbcffebc0	-0.031240344
132	0x3cf5b5cc	0.029993914
133	0x3cd29009	0.025703447
134	0xbd25f129	-0.04051319
135	0xbcc1039a	-0.023561288
136	0xbc98d533	-0.018656349
137	0x3cab7ca8	0.020933464
138	0x3d30b9f9	0.043146107
139	0x3a1f7a83	0.00060836243
140	0x3c89836d	0.016786302
141	0xbccc8b1a	-0.024968673
142	0x3d0d4757	0.034491863
143	0x3a059992	0.0005096431
144	0x3ca330ba	0.019920696
145	0x3c38daa2	0.011282595
146	0xbcbecfd9	-0.023292469
147	0x3ae07bf6	0.0017126787
148	0xbc2ed257	-0.010670266
149	0xbcbf8189	-0.023377197
150	0xbbc4efd8	-0.006010037
151	0x3d12de99	0.035856817
152	0x3cb6b8c2	0.022304896
153	0xbbcddbb2	-0.0062822932
154	0x3ac93940	0.0015352145
155	0x3d009649	0.031393323
156	0xbcbaa342	-0.022782926
157	0xbd1aa627	-0.03775611
158	0xbc848464	-0.01617641
159	0x3c6eb5de	0.014569728
160	0x3cfcf8fe	0.030880447
161	0xbc0eb9aa	-0.008711258
162	0x3bb676d5	0.005568365
163	0x3d0020dd	0.03128134
164	0x3b8e6d0e	0.0043464964
165	0x3c997976	0.018734675
166	0xbc0a4980	-0.008440375
167	0xbd0e85e0	-0.034795642
168	0x3b42e739	0.002973987
169	0x3c1c8b8b	0.009554754
170	0xbc6ddd7e	-0.01451814
171	0x3b9be7a0	0.0047578365
172	0x3c54d28a	0.01298965
173	0x3d225584	0.039632335
174	0xbc9b0a1c	-0.018925719
175	0x3c738cf6	0.014865151
176	0x3b7326f1	0.0037102068
177	0x3d104956	0.03522619
178	0xbd187c0d	-0.03722768
179	0x3d1f9c8a	0.038967647
180	0xbcbb2351	-0.022843989
181	0xbcc04880	-0.02347207
182	0xbd2462eb	-0.040133398
183	0x3cfb7e0d	0.030699754
184	0xbd1ae5b0	-0.037816703
185	0xbb92e7b9	-0.00448319
186	0x3cf19f78	0.029494986
187	0xbc905d06	-0.017622482
188	0x3d215092	0.03938348
189	0x3d0be406	0.034153007
190	0xbcb69cdd	-0.022291595
191	0x3d3153bb	0.043292742
192	0xbc86d2d5	-0.016457954
193	0xbc64b95e	-0.013960211
194	0xbd0e43f4	-0.034732774
195	0x3d21960d	0.03944974
196	0xbd104aae	-0.03522747
197	0x3b73a44b	0.0037176784
198	0x3cab40cc	0.020904921
199	0x3b92ea67	0.0044835093
200	0x3d29d214	0.04146011
201	0xbcbced13	-0.023062265
202	0x3cad4588	0.02115132
203	0x3abcdbdd	0.0014408786
204	0xbd1614da	-0.03664098
205	0x3c3a56bc	0.011373218
206	0xbd30cbed	-0.04316323
207	0x3d1a1f69	0.03762761
208	0x3d0e8de4	0.034803286
209	0xbca8d810	-0.02061084
210	0x3cf971b5	0.030449728
211	0xbd2e637f	-0.042575356
212	0x3c6a8a8f	0.0143152615
213	0xbcea527a	-0.028603781
214	0x3cce7a88	0.025204912
215	0xbd2902e3	-0.04126252
216	0xbcba8c06	-0.022771847
217	0x3cea0670	0.028567523
218	0xbba7ea76	-0.0051243855
219	0xbcd79d19	-0.026320027
220	0xbd1d7a74	-0.03844686
221	0x3cf0fc04	0.029417045
222	0xbbedebfb	-0.007260797
223	0x3ccb7caa	0.024839718
224	0x3c522350	0.012825802
225	0x3b725bf3	0.0036981076
226	0x3d0ab2b6	0.03386184
227	0xbcd2abc3	-0.025716668
228	0x3cb26617	0.021777196
229	0x3caee262	0.021348182
230	0xbc3748a5	-0.011186753
231	0x3c5d1fe5	0.013496374
232	0x3d1424fa	0.036168076
233	0x3ca7c103	0.020477777
234	0xbcfc4d8e	-0.0307987
235	0xbc8d51f9	-0.017251002
236	0xbc1f9883	-0.0097409515
237	0xbbb3fcfa	-0.0054928036
238	0xbd06d57b	-0.032918435
239	0x3d1cbdd3	0.038266968
240	0x3c46581f	0.012105971
241	0xbc807718	-0.015681788
242	0x3d109458	0.03529772
243	0x3cc71609	0.0243025
244	0x3ac21e16	0.0014809992
245	0xbd1d3597	-0.038381185
246	0xbcec325a	-0.028832603
247	0x3c59d495	0.013295312
248	0x3c85f9e8	0.016354516
249	0x3cfc53ba	0.030801643
250	0xbd1d1fcd	-0.038360406
251	0xbca82b10	-0.020528346
252	0xbbc998f0	-0.006152265
253	0x3cac7a63	0.021054452
254	0x3cdaa4b8	0.026689872
255	0x3d1c7bfc	0.03820418
