reflexion/result/epoch_0002/critic.pth (torch, 3223 bytes, 1 tensors)

weight f4 [1, 512]
0	0x3bb62ee9	0.0055597913
1	0x3cbde901	0.023182394
2	0x3bf69de5	0.0075261467
3	0xbcd1a4ee	-0.02559134
4	0xbbfed5d9	-0.0077769575
5	0x3ced03ec	0.028932534
6	0x3c6abf6a	0.014327863
7	0x3d131f92	0.03591878
8	0xbd1c7b93	-0.038203787
9	0xbcc7b5ba	-0.024378646
10	0x3d23de14	0.040006712
11	0x3d2b44fc	0.041813836
12	0x3d06fabf	0.032953974
13	0xbd318e54	-0.043348625
14	0x3d03f51e	0.032216184
15	0x3d1856ce	0.03719216
16	0x3c85ca81	0.016331913
17	0xbb75ff31	-0.003753614
18	0xbcc0e8f4	-0.02354858
19	0x3cd49795	0.025951186
20	0x3d27f08f	0.0410009
21	0x3cba1b74	0.022718169
22	0xbc262fd7	-0.010143242
23	0x3c85fafa	0.016355027
24	0xbc9fd8b0	-0.019512504
25	0xbd2c8dc9	-0.042127404
26	0x3c8c8884	0.01715494
27	0xbc9e2932	-0.019306753
28	0x3c4f2ee5	0.012645458
29	0x3bea16a8	0.007143814
30	0x3cc1261f	0.023577748
31	0x3ca50967	0.020146085
32	0x3d31c9b3	0.043405246
33	0x3d1b1724	0.037863865
34	0x3abc776b	0.0014378851
35	0x3c0ebd20	0.008712083
36	0xbbc66a20	-0.0060551316
37	0x3c989567	0.018625928
38	0xbb20cf92	-0.0024537784
39	0x394b6cd5	0.00019400132
40	0x3c929d1f	0.017897187
41	0xbcd281af	-0.025696604
42	0x3c6df83b	0.014524515
43	0x3c005a50	0.007834032
44	0xbd274f1d	-0.040846933
45	0xbc0fadec	-0.008769494
46	0x3c6f1072	0.014591323
47	0x3bac435f	0.0052570547
48	0xbd091699	-0.033468816
49	0xbc9d46be	-0.019198772
50	0x3cf89052	0.030342255
51	0x3c7f2cba	0.0155746285
52	0xbd230718	-0.039801687
53	0x3ba808a7	0.0051279846
54	0x3c8b4559	0.017000841
55	0x3ba7dfa7	0.005123097
56	0x3b69f032	0.0035696146
57	0x3bb01bab	0.005374392
58	0xbbd9d3aa	-0.006647547
59	0xbc06fe8a	-0.008239398
60	0x3cef23d1	0.029191883
61	0x3bbe9b5d	0.0058168606
62	0xbcf3136a	-0.029672343
63	0x3d2f3242	0.04277254
64	0xb9a1d4ae	-0.00030866772
65	0xbceabc95	-0.028654376
66	0x3ae150ff	0.0017190276
67	0x3bff9e50	0.0078008547
68	0xbcafdf14	-0.021468677
69	0xbc1ecc8b	-0.0096923215
70	0xbc4b9fbb	-0.012428219
71	0x3c18ecda	0.009333814
72	0xbd2e2100	-0.04251194
73	0x3ce14427	0.027498318
74	0xbc8ff9ac	-0.017575108
75	0xba213f7b	-0.0006151122
76	0x3bb034e9	0.005377401
77	0xbd269b50	-0.04067546
78	0x3d11cc80	0.035595417
79	0xbcc39e6a	-0.023879249
80	0xbcfb3750	-0.030666023
81	0xbca4d0c6	-0.020119082
82	0xbb3d0c55	-0.0028846462
83	0xbcee7cff	-0.029112337
84	0xbce4d2ba	-0.027932514
85	0x3c9740dc	0.018463545
86	0xbd057f52	-0.032592125
87	0x3cefe377	0.029283268
88	0x3d0a5fc6	0.033782743
89	0x3c13a99c	0.009012606
90	0x3cd1cc3d	0.025610084
91	0x3aa92ef2	0.0012907668
92	0x3cc82336	0.024430852
93	0x3ce4f0af	0.027946798
94	0x3c1dc831	0.009630249
95	0xbcc6ab35	-0.02425156
96	0x3b221a81	0.0024735036
97	0xbcee5476	-0.029093008
98	0xbb4485fb	-0.0029987085
99	0x3c0a9a54	0.008459646
100	0xbbae07ae	-0.005310974
101	0x3d0b0442	0.033939607
102	0xbc7e7006	-0.015529638
103	0x3b3f1354	0.0029155808
104	0xbafad6a1	-0.0019137451
105	0xbd256120	-0.04037583
106	0x3c5ddf79	0.01354205
107	0x3d306914	0.04306896
108	0xbbcf3b1c	-0.006324185
109	0x3caea63a	0.021319497
110	0xbc94bb74	-0.01815579
111	0x3d2103d8	0.039310306
112	0xbcc7e6e9	-0.024402099
113	0x3d30cff0	0.043167055
114	0xbcf6687d	-0.03007912
115	0xbc7c33af	-0.015393182
116	0xbd17105c	-0.036880836
117	0xbd25ab92	-0.040446825
118	0xbd1b851e	-0.037968747
119	0xbca70e14	-0.020392455
120	0x3c631bcd	0.013861609
121	0x3d0d0b7a	0.034434773
122	0x3cd97db9	0.026549207
123	0xbcf2d6d1	-0.029643448
124	0xbd2e7a58	-0.042597145
125	0xbd1698fc	-0.03676699
126	0x3d2b329f	0.041796323
127	0x3cc2d8b0	0.023784965
128	0x3d34c221	0.04413045
129	0x3c99299b	0.018696597
130	0xbc391ea2	-0.011298807
131	0xbcff4e42	-0.031165246
132	0x3cf1b595	0.02950553
133	0x3cd0739c	0.025445752
134	0xbd24b96a	-0.040215887
135	0xbcbeadfc	-0.023276322
136	0xbc947ed0	-0.018126875
137	0x3ca8ff2d	0.02062949
138	0x3d2fe875	0.042946298
139	0x3836e75c	4.360765e-05
140	0x3c84af56	0.016196888
141	0xbccc8b1a	-0.024968673
142	0x3d09eb13	0.03367145
143	0x39d4494b	0.00040490399
144	0x3ca2123a	0.019784082
145	0x3c3825a4	0.011239443
146	0xbcbe5a0e	-0.0232363
147	0x3ae75535	0.0017649295
148	0xbc2be836	-0.010492375
149	0xbcbe0d83	-0.023199802
150	0xbbb82f9d	-0.0056209103
151	0x3d11d89c	0.035606965
152	0x3cb6b8c2	0.022304896
153	0xbbcddbb2	-0.0062822932
154	0x3a8bc64c	0.0010663955
155	0x3cfe4792	0.031039987
156	0xbcbaa342	-0.022782926
157	0xbd1a0b50	-0.037608445
158	0xbc82426c	-0.015900813
159	0x3c6d4c53	0.014483529
160	0x3cfafb98	0.030637547
161	0xbc0eb9aa	-0.008711258
162	0x3bb2dec3	0.005458684
163	0x3cfeb469	0.031091886
164	0x3b8b6dd9	0.004255038
165	0x3c97a501	0.018511297
166	0xbc05a4fa	-0.008157009
167	0xbd0da30f	-0.034579333
168	0x3b3f6bee	0.0029208618
169	0x3c194d11	0.009356753
170	0xbc6ddd7e	-0.01451814
171	0x3ba2ea06	0.0049717454
172	0x3c537a54	0.012907583
173	0x3d213386	0.039355777
174	0xbc99e8e5	-0.01878781
175	0x3c738cf6	0.014865151
176	0x3b656b26	0.0035006492
177	0x3d0e7b3f	0.034785505
178	0xbd181c9e	-0.037136666
179	0x3d1e5cc1	0.038662676
180	0xbcb6e5c0	-0.02232635
181	0xbcbf38c6	-0.023342501
182	0xbd2462eb	-0.040133398
183	0x3cf78ff5	0.030220011
184	0xbd1a3777	-0.03765055
185	0xbb94e481	-0.0045438414
186	0x3cf19f78	0.029494986
187	0xbc8d32f4	-0.01723621
188	0x3d2088e9	0.039193068
189	0x3d0b0b0d	0.033946086
190	0xbcb52d79	-0.02211641
191	0x3d2ff14c	0.042954728
192	0xbc85f8e9	-0.016354041
193	0xbc578cc5	-0.013156121
194	0xbd0dea6e	-0.034647398
195	0x3d201f2b	0.039092224
196	0xbd0f3e61	-0.0349716
197	0x3b662283	0.0035115785
198	0x3cab40cc	0.020904921
199	0x3b929199	0.004472923
200	0x3d276723	0.040869843
201	0xbcbb53ab	-0.022867044
202	0x3cab6fb7	0.020927293
203	0x3aa7cee3	0.0012802746
204	0xbd14c7cb	-0.03632335
205	0x3c383193	0.011242288
206	0xbd2e6658	-0.04257807
207	0x3d19946e	0.03749507
208	0x3d0df1ed	0.034654547
209	0xbca78969	-0.020451264
210	0x3cf50cc8	0.029913321
211	0xbd2c9b40	-0.042140245
212	0x3c66c151	0.014084176
213	0xbce9285a	-0.028461624
214	0x3ccab9a4	0.024746723
215	0xbd26a11e	-0.040680997
216	0xbcb98148	-0.022644654
217	0x3ce40888	0.0278361
218	0xbbae4b26	-0.005319017
219	0xbcd6b7a8	-0.026210621
220	0xbd1d7a74	-0.03844686
221	0x3cef2eb4	0.029197074
222	0xbbf59d50	-0.0074955598
223	0x3cc965c2	0.024584655
224	0x3c512377	0.012764803
225	0x3b6ffc4a	0.0036618882
226	0x3d0968ab	0.033547085
227	0xbcd10b3a	-0.025518049
228	0x3caff15b	0.021477392
229	0x3cadac49	0.021200316
230	0xbc2c4c3b	-0.010516222
231	0x3c542523	0.012948307
232	0x3d12cf2f	0.035842117
233	0x3ca8eb09	0.020619886
234	0xbcfa51bd	-0.030556554
235	0xbc8a9496	-0.016916554
236	0xbc1fd268	-0.009754755
237	0xbbba8f18	-0.0056933276
238	0xbd05d635	-0.032674987
239	0x3d1b523e	0.03792023
240	0x3c455a2a	0.012045423
241	0xbc807718	-0.015681788
242	0x3d0fd05b	0.035110813
243	0x3cc4cc82	0.024023298
244	0x3aae5007	0.0013298996
245	0xbd1b75c5	-0.03795411
246	0xbceac913	-0.028660333
247	0x3c5b6733	0.013391304
248	0x3c85d12f	0.016335098
249	0x3cfb8de5	0.030707309
250	0xbd1c46c7	-0.038153436
251	0xbca6940b	-0.020334264
252	0xbbc998f0	-0.006152265
253	0x3cabc501	0.020967962
254	0x3cd55313	0.02604059
255	0x3d1bfbca	0.03808192
