reflexion/result/epoch_0002/critic.pth (torch, 3223 bytes, 1 tensors)

weight f4 [1, 512]
0.0056850854 0.022937704 0.0075261467 -0.02565892 -0.0077769575 0.029286437 0.014327863 0.03605511
-0.038001653 -0.02430499 0.040084165 0.041955795 0.033194795 -0.043730542 0.032237116 0.037266824
0.016098723 -0.0037423333 -0.023586545 0.02599371 0.04129908 0.023025276 -0.010091634 0.016547224
-0.020060787 -0.042355366 0.01728902 -0.019291688 0.012686712 0.0069904327 0.024014799 0.020190185
0.04361915 0.037830558 0.001326332 0.00876473 -0.0060325256 0.018776856 -0.0023337954 0.00023431412
0.01794015 -0.02624184 0.014532477 0.008003929 -0.041394286 -0.008799673 0.014642548 0.0056270175
-0.03338866 -0.019193044 0.030492257 0.015644081 -0.04014562 0.0048321597 0.017197782 0.0051122196
0.0035449727 0.005374392 -0.006465113 -0.008085579 0.029343575 0.005877518 -0.029931674 0.043135185
-0.00030866772 -0.028714921 0.0017190276 0.0078008547 -0.021734726 -0.00967395 -0.012344355 0.0092637
-0.042600706 0.027288362 -0.017831737 -0.0006151122 0.005326296 -0.04078329 0.03561754 -0.023822164
-0.030873112 -0.020215608 -0.0028846462 -0.029336067 -0.02807571 0.0183999 -0.03265858 0.029399652
0.03392956 0.009376081 0.025652243 0.0014733638 0.024402877 0.027874248 0.009681654 -0.024426265
0.0024735036 -0.029006971 -0.0028622502 0.008587308 -0.005496398 0.03416584 -0.015326243 0.0029503754
-0.0019551462 -0.040491007 0.013779453 0.043249 -0.0065582083 0.021506963 -0.018178882 0.039339155
-0.024570595 0.043312144 -0.03058459 -0.015254372 -0.036880836 -0.040555052 -0.038220063 -0.020428339
0.0138749145 0.03447883 0.02665613 -0.029823529 -0.042676277 -0.03701756 0.04188971 0.023816008
0.04413045 0.018797413 -0.011302305 -0.031240344 0.02976846 0.025647908 -0.040364772 -0.023527514
-0.018859163 0.020728555 0.043067697 0.00036414145 0.016588127 -0.024968673 0.034330785 0.0004449921
0.0198811 0.011282595 -0.023291908 0.0017427483 -0.01051764 -0.023377197 -0.0059174905 0.035919275
0.022304896 -0.0061717597 0.0015518428 0.031269427 -0.022782926 -0.03768887 -0.016064888 0.014506358
0.030942446 -0.008711258 0.005602972 0.031108689 0.0042805457 0.018513521 -0.008422573 -0.034649476
0.0029509992 0.009711124 -0.01451814 0.0047633853 0.012996646 0.039526474 -0.01888099 0.014944325
0.0036185936 0.03502089 -0.03713362 0.03889321 -0.022731628 -0.023387913 -0.040133398 0.030419203
-0.03759973 -0.0044206246 0.029494986 -0.017458983 0.03925214 0.033997614 -0.022171516 0.043151096
-0.016310299 -0.013783768 -0.034637466 0.039197173 -0.03514201 0.0036557266 0.020904921 0.0044368105
0.041357633 -0.022844624 0.021066288 0.0013256554 -0.036398385 0.011328455 -0.042953018 0.03746319
0.034693435 -0.020371167 0.03022401 -0.042431865 0.014116873 -0.028478703 0.025115035 -0.04104275
-0.022874167 0.028503872 -0.005113129 -0.026404334 -0.03844686 0.029380968 -0.007276678 0.024718214
0.012825802 0.0038200526 0.03361429 -0.025571115 0.021468557 0.021188729 -0.010927988 0.013259897
0.0361134 0.02069751 -0.030737244 -0.01702063 -0.00977925 -0.0053537455 -0.032841295 0.03818093
0.012105971 -0.01546462 0.035220828 0.024276718 0.0014312945 -0.03815095 -0.028768662 0.013295312
0.016374024 0.030710816 -0.03821482 -0.020396097 -0.006152265 0.021065969 0.026551409 0.038152654
00000000: f449 ba3b dae7 bb3c e59d f63b a832 d2bc
00000010: d9d5 febb 1cea ef3c 6abf 6a3c 86ae 133d
00000020: 9fa7 1bbd 421b c7bc 4b2f 243d d7d9 2b3d
00000030: 44f7 073d cc1e 33bd 110b 043d 19a5 183d
00000040: 78e1 833c ef41 75bb 9238 c1bc c3f0 d43c
00000050: 3929 293d 819f bc3c 6157 25bc 0b8e 873c
00000060: 8556 a4bc d27c 2dbd b4a1 8d3c 9a09 9ebc
00000070: eddb 4f3c 0010 e53b afba c43c e365 a53c
00000080: fea9 323d 37f4 1a3d 51d8 ad3a f199 0f3c
00000090: 7eac c5bb ecd1 993c 97f2 18bb 38b2 7539
000000a0: 39f7 923c 21f9 d6bc a019 6e3c e922 033c
000000b0: 0e8d 29bd 812c 10bc 4ce7 6f3c d862 b83b
000000c0: 8cc2 08bd bb3a 9dbc e6ca f93c 0428 803c
000000d0: bc6f 24bd 1857 9e3b 5de2 8c3c 6884 a73b
000000e0: c652 683b ab1b b03b 4cd9 d3bb 6079 04bc
000000f0: f061 f03c 3298 c03b 4533 f5bc 85ae 303d
00000100: aed4 a1b9 8e3b ebbc ff50 e13a 509e ff3b
00000110: 060d b2bc 7d7f 1ebc fa3f 4abc c6c6 173c
00000120: 147e 2ebd d88b df3c dd13 92bc 7b3f 21ba
00000130: 3688 ae3b 610c 27bd b3e3 113d b326 c3bc
00000140: 9ce9 fcbc 349b a5bc 550c 3dbb 3152 f0bc
00000150: 08ff e5bc 63bb 963c 01c5 05bd 8ad7 f03c
00000160: b9f9 0a3d 229e 193c a724 d23c e31d c13a
00000170: 8be8 c73c 8958 e43c cd9f 1e3c 9719 c8bc
00000180: 811a 223b 07a0 edbc 9794 3bbb c8b1 0c3c
00000190: 211b b4bb 7bf1 0b3d ec1a 7bbc 165b 413b
000001a0: e921 00bb e6d9 25bd 37c3 613c dd25 313d
000001b0: 3de6 d6bb 5f2f b03c e1eb 94bc 1822 213d
000001c0: 4648 c9bc 1368 313d 898c fabc 79ed 79bc
000001d0: 5c10 17bd 0e1d 26bd a48c 1cbd 5559 a7bc
000001e0: 9c53 633c ac39 0d3d f55d da3c 7950 f4bc
000001f0: 52cd 2ebd ba9f 17bd 8b94 2b3d ca19 c33c
00000200: 21c2 343d 08fd 993c 4e2d 39bc c0eb ffbc
00000210: fcdc f33c 901b d23c 8855 25bd c6bc c0bc
00000220: 887e 9abc eece a93c c167 303d 3dea be39
00000230: d3e3 873c 1a8b ccbc 709e 0c3d d44d e939
00000240: b0dd a23c a2da 383c acce bebc ee6c e43a
00000250: 2e52 2cbc 8981 bfbc 82e7 c1bb 1720 133d
00000260: c2b8 b63c 793c cabb 3467 cb3a 5f14 003d
00000270: 42a3 babc a55f 1abd 839a 83bc 13ac 6d3c
00000280: 037b fd3c aab9 0ebc 2399 b73b a6d7 fe3c
00000290: d243 8c3b aba9 973c d5fe 09bc 9cec 0dbd
000002a0: 8d65 413b 681b 1f3c 7edd 6dbc 2c16 9c3b
000002b0: e2ef 543c 83e6 213d 4eac 9abc 0bd9 743c
000002c0: ed25 6d3b 1172 0f3d 6c19 18bd 7d4e 1f3d
000002d0: ae37 babc 0298 bfbc eb62 24bd b131 f93c
000002e0: 2d02 1abd e3da 90bb 789f f13c 2406 8fbc
000002f0: dac6 203d 1541 0b3d 0aa1 b5bc 34bf 303d
00000300: 2d9d 85bc 50d5 61bc 04e0 0dbd 378d 203d
00000310: 11f1 0fbd ea94 6f3b cc40 ab3c aa62 913b
00000320: 9f66 293d a624 bbbc 3593 ac3c 9dc1 ad3a
00000330: 7916 15bd fc9a 393c 81ef 2fbd 0073 193d
00000340: b41a 0e3d 6fe1 a6bc 5898 f73c 09cd 2dbd
00000350: 754a 673c 2b4c e9bc 0cbe cd3c 711c 28bd
00000360: 9b62 bbbc f480 e93c 098c a7bb e74d d8bc
00000370: 747a 1dbd 5bb0 f03c 3371 eebb da7d ca3c
00000380: 5023 523c d959 7a3b 23af 093d 847a d1bc
00000390: d4de af3c fc93 ad3c 4e0b 33bc 0a40 593c
000003a0: a5eb 133d d38d a93c accc fbbc d96e 8bbc
000003b0: 2639 20bc 796e afbb 9884 06bd 9b63 1c3d
000003c0: 1f58 463c 515f 7dbc b743 103d f8df c63c
000003d0: 469a bb3a 2c44 1cbd 42ac ebbc 95d4 593c
000003e0: d122 863c 4095 fb3c 2587 1cbd b715 a7bc
000003f0: f098 c9bb 8a92 ac3c 5782 d93c f545 1c3d
