reflexion/result/epoch_0003/critic.pth (torch, 3223 bytes, 1 tensors)

weight f4 [1, 512]
00000000: e112 c03b 457d bd3c e59d f63b 25d3 d3bc
00000010: d9d5 febb 03e1 f03c 6abf 6a3c de4f 133d
00000020: 0de5 1cbd 6fe2 c7bc f708 253d 42c8 2c3d
00000030: 729e 083d 5aad 33bd b3ed 043d 8326 193d
00000040: 192f 853c aee4 73bb 0f0c c3bc 04d9 d53c
00000050: 75f8 293d 89cc bd3c 11b8 23bc b1eb 873c
00000060: 86d1 a4bc 577a 2ebd 7fb3 8d3c f92c 9ebc
00000070: b399 4f3c 62e8 e43b 5112 c43c b1be a53c
00000080: daba 333d 2177 1b3d 1701 a73a 1d53 113c
00000090: 7eac c5bb 464e 9a3c 7882 18bb beae 7439
000000a0: ec61 933c ff94 d7bc 32c2 703c e922 033c
000000b0: 53c6 29bd 2a75 12bc a959 743c 3fce b23b
000000c0: 6146 09bd 00c3 9ebc 1af3 f83c 165f 803c
000000d0: 6106 25bd 02ed 993b c377 8c3c bfbd a83b
000000e0: cb5c 663b ab1b b03b 0eeb d3bb d011 06bc
000000f0: ec2c f13c 375d c03b 32d3 f3bc 4d67 313d
00000100: aed4 a1b9 7412 edbc ff50 e13a 509e ff3b
00000110: 8e1d b5bc 0fb8 25bc d32c 4cbc 2ae4 163c
00000120: 83e6 2ebd 7cb8 e03c 98f2 91bc 7b3f 21ba
00000130: 4592 ae3b 3f50 27bd c89c 123d 6e52 c4bc
00000140: 2895 febc 9e67 a6bc 550c 3dbb c28f f0bc
00000150: 30d2 e6bc fed1 973c 861f 06bd 4487 f03c
00000160: 3f8f 0b3d e02c 143c 0e1d d43c 809a ce3a
00000170: 1518 c93c dad1 e43c 2e77 203c bfb7 c8bc
00000180: 811a 223b cbbd efbc d5eb 2dbb 09e8 0f3c
00000190: b5c7 babb 86cd 0c3d 712f 7cbc 64c6 443b
000001a0: 9372 03bb a487 26bd 726c 603c 9972 313d
000001b0: 4dd6 dabb 39dd b03c 12b8 95bc a9c2 213d
000001c0: 3670 cabc 496f 323d e1d8 fabc 79ed 79bc
000001d0: 5c10 17bd 1eb0 26bd b810 1dbd ae7c a7bc
000001e0: 9052 633c c487 0d3d 3c7f db3c 9347 f5bc
000001f0: 0731 30bd 9700 18bd 20df 2b3d 9057 c33c
00000200: 21c2 343d ce2a 9b3c d730 38bc c0eb ffbc
00000210: 8fb2 f53c 5f8c d23c 00ec 25bd 8d05 c1bc
00000220: 33d5 98bc 9072 ab3c 0eb9 303d 1ddd 1e3a
00000230: c07e 893c 1a8b ccbc c144 0d3d f643 053a
00000240: 502e a33c a2da 383c dfd1 bebc fb57 e03a
00000250: 6bd0 2ebc 8981 bfbc fef0 c4bb 99de 123d
00000260: c2b8 b63c b2db cdbb d8af c83a 9394 003d
00000270: 42a3 babc 29a7 1abd ea85 84bc deb5 6e3c
00000280: fef8 fc3c aab9 0ebc 5d6d b63b 971d 003d
00000290: 3d64 8e3b e576 993c 8049 0abc 7e86 0ebd
000002a0: 5dde 423b 8b8b 1c3c 7edd 6dbc 80e0 9b3b
000002b0: 55ce 543c 8455 223d 1b0c 9bbc f68c 733c
000002c0: 4412 733b 4747 103d 0d7c 18bd 8a9c 1f3d
000002d0: cb23 bbbc 5b47 c0bc eb62 24bd 5777 fb3c
000002e0: f2e5 1abd 4ded 92bb 789f f13c 065d 90bc
000002f0: 2e4f 213d ade2 0b3d dd9c b6bc 3152 313d
00000300: d5d2 86bc 5aba 64bc f443 0ebd eb93 213d
00000310: 414b 10bd f577 733b cc40 ab3c b5df 923b
00000320: c7cf 293d 13ed bcbc f942 ad3c 0fc3 bc3a
00000330: f61a 16bd b351 3a3c d4d1 30bd 691f 1a3d
00000340: 768c 0e3d 8dd9 a8bc e266 f93c 7f63 2ebd
00000350: 8f8a 6a3c 7a52 eabc 1b6f ce3c e302 29bd
00000360: 068c babc 7006 ea3c f3f2 a7bb 199d d7bc
00000370: 747a 1dbd 04fc f03c e6f4 edbb 6c79 cb3c
00000380: 5023 523c bc59 723b 9fae 0a3d 0cad d2bc
00000390: cd62 b23c efdd ae3c a548 37bc e51f 5d3c
000003a0: fa24 143d c8c4 a73c 614e fcbc 5451 8dbc
000003b0: daa7 1fbc fafc b3bb 62d6 06bd d3bd 1c3d
000003c0: 1f58 463c 1877 80bc c992 103d 0916 c73c
000003d0: 86f6 c13a 9735 1dbd 1034 ecbc 95d4 593c
000003e0: a2f7 853c ba53 fc3c 5220 1dbd 6e25 a8bc
000003f0: f098 c9bb 637a ac3c c7a2 da3c fc7b 1c3d
0.0058616255 0.023131022 0.0075261467 -0.025857517 -0.0077769575 0.029404169 0.014327863 0.03596484
-0.038304377 -0.024399964 0.040291753 0.04218317 0.03335423 -0.043866493 0.03245325 0.037390243
0.01625781 -0.003721516 -0.02380946 0.026104458 0.041496713 0.023168819 -0.009992615 0.016591879
-0.02011944 -0.04259714 0.017297504 -0.019308554 0.012670922 0.00698571 0.023934515 0.02023253
0.043879367 0.037955407 0.0012741414 0.008869913 -0.0060325256 0.018836152 -0.0023271125 0.0002333475
0.017991029 -0.026316164 0.014694737 0.008003929 -0.041448902 -0.008939067 0.014913955 0.0054567154
-0.033514384 -0.019380093 0.030389357 0.01567034 -0.040289287 0.004697443 0.01714695 0.0051495726
0.0035150524 0.005374392 -0.0064672297 -0.008182958 0.029440366 0.005870487 -0.029763792 0.043311406
-0.00030866772 -0.028939463 0.0017190276 0.0078008547 -0.02210882 -0.010114684 -0.012461859 0.009209672
-0.0427003 0.027431719 -0.017815873 -0.0006151122 0.0053274953 -0.040848013 0.03579405 -0.023965087
-0.031076983 -0.02031308 -0.0028846462 -0.029365424 -0.028176397 0.01853275 -0.032744907 0.029361375
0.034072157 0.009043902 0.02589276 0.0015762597 0.024547616 0.027932096 0.00979404 -0.02450168
0.0024735036 -0.029265305 -0.0026538272 0.008783349 -0.0057000765 0.03437569 -0.01539217 0.0030025477
-0.0020057305 -0.0406567 0.01369773 0.04332218 -0.0066783787 0.021589862 -0.018276248 0.039492283
-0.02471171 0.04356316 -0.030620994 -0.015254372 -0.036880836 -0.040695302 -0.038346022 -0.020445194
0.013874665 0.034553304 0.026794069 -0.029941356 -0.043015506 -0.037109938 0.041960835 0.023845464
0.04413045 0.01894131 -0.011242113 -0.031240344 0.02999237 0.0257017 -0.04050827 -0.023562217
-0.018656349 0.020928651 0.043145232 0.000606017 0.016784072 -0.024968673 0.034489397 0.00050836743
0.019919544 0.011282595 -0.023293434 0.0017116064 -0.010669808 -0.023377197 -0.006010174 0.035856817
0.022304896 -0.0062822932 0.0015311195 0.03139169 -0.022782926 -0.037757073 -0.016177136 0.014569728
0.030880447 -0.008711258 0.0055672363 0.03127822 0.0043454454 0.018733451 -0.008440375 -0.03479623
0.002973459 0.009554754 -0.01451814 0.004756987 0.0129886465 0.039632335 -0.01892667 0.014865151
0.0037089745 0.035224225 -0.03722768 0.038967647 -0.022844216 -0.023471525 -0.040133398 0.030696554
-0.03781695 -0.004483855 0.029494986 -0.017622482 0.039382152 0.03415172 -0.022291595 0.043291274
-0.016457954 -0.013960445 -0.034732774 0.039447706 -0.035228018 0.0037150357 0.020904921 0.0044822344
0.041457918 -0.023062265 0.0211501 0.0014401394 -0.036646806 0.011372018 -0.043168858 0.03762761
0.034801923 -0.020611549 0.030444566 -0.042575356 0.0143152615 -0.028603781 0.025199464 -0.04126252
-0.022771847 0.028567523 -0.0051253974 -0.026320027 -0.03844686 0.029417045 -0.00726186 0.024838172
0.012825802 0.0036979755 0.033857938 -0.02571728 0.021775628 0.02134606 -0.011186753 0.013496374
0.036168076 0.020479575 -0.030799093 -0.017250694 -0.009744609 -0.0054928036 -0.032919295 0.038266968
0.012105971 -0.015681788 0.035296235 0.0243025 0.0014798201 -0.038381185 -0.02883342 0.013295312
0.016353432 0.030801643 -0.0383609 -0.02052566 -0.006152265 0.021054452 0.026688946 0.03820418
