reflexion/result/epoch_0003/critic.pth (torch, 3223 bytes, 1 tensors)

weight f4 [1, 512]
0.005478658 0.023160968 0.0075261467 -0.02550758 -0.0077769575 0.02867987 0.014327863 0.035898175
-0.038203787 -0.024378646 0.039932806 0.041642096 0.032734387 -0.043348625 0.032119118 0.037150096
0.01633155 -0.003755139 -0.023467708 0.025885925 0.040862907 0.02257905 -0.010138773 0.016307099
-0.019480715 -0.042127404 0.017125836 -0.019336026 0.012746213 0.0072055575 0.023543244 0.020088324
0.043405246 0.037855554 0.0014830021 0.008643521 -0.005844733 0.018525025 -0.002615989 0.00015540111
0.017860506 -0.02559913 0.014517089 0.007834032 -0.04082473 -0.008673042 0.014520075 0.005212798
-0.033457756 -0.01917299 0.030342255 0.0155746285 -0.03967097 0.005230245 0.017030092 0.0050630616
0.003663552 0.005374392 -0.006718436 -0.008132731 0.029089302 0.0058168606 -0.029552309 0.042650737
-0.00030866772 -0.028634252 0.0017190276 0.0078008547 -0.021468677 -0.009530412 -0.012383256 0.009286254
-0.042260256 0.027498318 -0.017575108 -0.0006151122 0.0053877956 -0.040551204 0.035595417 -0.023879249
-0.03058988 -0.020041885 -0.0032473793 -0.028991397 -0.027795408 0.018418252 -0.032592125 0.02927889
0.033642124 0.009064946 0.025546517 0.0011148768 0.024396136 0.027946798 0.009630249 -0.024104822
0.0024735036 -0.029071242 -0.0031679564 0.008397956 -0.005234123 0.033842858 -0.015607126 0.0029008046
-0.0018777878 -0.04037583 0.013563685 0.042890076 -0.0062764105 0.021319497 -0.018419448 0.039310306
-0.024263568 0.043147523 -0.029949374 -0.015393182 -0.036880836 -0.040318653 -0.0378789 -0.020392455
0.013833914 0.034314662 0.02648395 -0.029560639 -0.042584583 -0.036589596 0.04172911 0.023698386
0.04413045 0.018596979 -0.011277375 -0.031165246 0.029398626 0.025425378 -0.039817438 -0.023238491
-0.018126875 0.02062949 0.042975128 -5.265161e-05 0.015884371 -0.024968673 0.033623017 0.0003956469
0.019791482 0.010891879 -0.023171527 0.0017823878 -0.010378504 -0.023151001 -0.005402843 0.035606965
0.022304896 -0.0062822932 0.0008121809 0.030937485 -0.022782926 -0.037549037 -0.015878936 0.014311853
0.030637547 -0.008711258 0.005427648 0.031091886 0.0042455024 0.018522473 -0.008018834 -0.034567844
0.0029604472 0.009156364 -0.01451814 0.0049560294 0.01288137 0.039257072 -0.018733105 0.014865151
0.0033963425 0.034781516 -0.037136666 0.038008455 -0.022324482 -0.023342501 -0.040133398 0.030134138
-0.037646614 -0.004695507 0.029494986 -0.017113797 0.039177667 0.033868305 -0.022066642 0.042842217
-0.016354041 -0.012970058 -0.034647398 0.03902531 -0.03486104 0.0035874946 0.020904921 0.0044674124
0.040759802 -0.022867044 0.020777509 0.0011352377 -0.03626982 0.011050175 -0.042434923 0.03749507
0.034654547 -0.020364933 0.02970987 -0.042131815 0.013922902 -0.028387249 0.024618557 -0.040373705
-0.022642547 0.027747855 -0.0054352065 -0.026210621 -0.03844686 0.029197074 -0.007540603 0.02452189
0.012764803 0.0036779933 0.033547085 -0.025518049 0.021295436 0.021156795 -0.010516222 0.012982973
0.035758622 0.020701148 -0.030511037 -0.016672142 -0.009754755 -0.0056299623 -0.032565463 0.037756465
0.012045423 -0.015681788 0.035104234 0.024035336 0.0012574415 -0.037816796 -0.028594175 0.013133492
0.01636049 0.030707309 -0.0381292 -0.02026123 -0.006152265 0.020967962 0.025967302 0.03808192
00000000: 5086 b33b 12bc bd3c e59d f63b 46f5 d0bc
00000010: d9d5 febb 0cf2 ea3c 6abf 6a3c f709 133d
00000020: 937b 1cbd bab5 c7bc 9590 233d e790 2a3d
00000030: 7e14 063d 548e 31bd 568f 033d b32a 183d
00000040: bec9 853c c718 76bb 5a3f c0bc b80e d43c
00000050: dd5f 273d b3f7 b83c 191d 26bc 7796 853c
00000060: 0596 9fbc c98d 2cbd 7b4b 8c3c 9666 9ebc
00000070: 7ed5 503c 991c ec3b c3dd c03c 4590 a43c
00000080: b3c9 313d 6d0e 1b3d 4b61 c23a 8e9d 0d3c
00000090: 2d85 bfbb cbc1 973c 0371 2bbb 2bf3 2239
000000a0: 3250 923c 44b5 d1bc 16d9 6d3c 505a 003c
000000b0: d537 27bd 6019 0ebc 9ce5 6d3c 1ed0 aa3b
000000c0: 000b 09bd ad10 9dbc 5290 f83c ba2c 7f3c
000000d0: 077e 22bd 7a62 ab3b b182 8b3c 0ae8 a53b
000000e0: 3418 703b ab1b b03b 5326 dcbb 253f 05bc
000000f0: b04c ee3c 5d9b be3b af17 f2bc 8ab2 2e3d
00000100: aed4 a1b9 6192 eabc ff50 e13a 509e ff3b
00000110: 14df afbc 7225 1cbc 24e3 4abc 5f25 183c
00000120: 1719 2dbd 2744 e13c acf9 8fbc 7b3f 21ba
00000130: 1b8c b03b 0519 26bd 80cc 113d 6a9e c3bc
00000140: a197 fabc e12e a4bc fcd1 54bb 5e7f edbc
00000150: 32b3 e3bc e0e1 963c 527f 05bd 48da ef3c
00000160: 53cc 093d 2485 143c ee46 d13c 0f21 923a
00000170: 68da c73c aff0 e43c 31c8 1d3c 7a77 c5bc
00000180: 811a 223b d026 eebc 7d9d 4fbb 9597 093c
00000190: 0283 abbb cf9e 0a3d 08b5 7fbc 6d1b 3e3b
000001a0: 1a20 f6ba 2061 25bd 383a 5e3c 81ad 2f3d
000001b0: 59aa cdbb 3aa6 ae3c 62e4 96bc d803 213d
000001c0: 64c4 c6bc 75bb 303d 6458 f5bc af33 7cbc
000001d0: 5c10 17bd 2c25 25bd e826 1bbd 140e a7bc
000001e0: a4a7 623c 888d 0c3d def4 d83c 2729 f2bc
000001f0: 2c6d 2ebd f9de 15bd 25ec 2a3d 1e23 c23c
00000200: 21c2 343d b158 983c bdc4 38bc 424e ffbc
00000210: 63d5 f03c e248 d03c 9c17 23bd a65e bebc
00000220: d07e 94bc 2dff a83c b006 303d 3cd6 5cb8
00000230: f11f 823c 1a8b ccbc 4ab8 093d d46e cf39
00000240: bf21 a23c da73 323c 37d2 bdbc 039f e93a
00000250: 9a0a 2abc 2ba7 bdbc 550a b1bb 9cd8 113d
00000260: c2b8 b63c b2db cdbb 8ae8 543a 9c70 fd3c
00000270: 42a3 babc 05cd 19bd 8b14 82bc 437c 6a3c
00000280: 98fb fa3c aab9 0ebc 69da b13b 69b4 fe3c
00000290: db1d 8b3b 71bc 973c 6d61 03bc 0397 0dbd
000002a0: 1004 423b 9304 163c 7edd 6dbc 3066 a23b
000002b0: 620c 533c 06cc 203d 2b76 99bc f68c 733c
000002c0: 2c95 5e3b 1077 0e3d 9e1c 18bd c1ae 1b3d
000002d0: d5e1 b6bc c638 bfbc eb62 24bd dedb f63c
000002e0: 5633 1abd c5dc 99bb 789f f13c 3c32 8cbc
000002f0: c378 203d 7eb9 0a3d 1ac5 b4bc 527b 2f3d
00000300: e9f8 85bc 5e80 54bc 6eea 0dbd 01d9 1f3d
00000310: 73ca 0ebd 2c1c 6b3b cc40 ab3c 5f63 923b
00000320: c0f3 263d ab53 bbbc 9835 aa3c 42cc 943a
00000330: aa8f 14bd cb0b 353c 3ed0 2dbd 6e94 193d
00000340: edf1 0d3d 5cd4 a6bc 1d62 f33c 6992 2cbd
00000350: e21c 643c 608c e8bc dbac c93c e65e 25bd
00000360: dd7c b9bc 784f e33c d119 b2bb a8b7 d6bc
00000370: 747a 1dbd b42e ef3c 2a17 f7bb 21e2 c83c
00000380: 7723 513c 7d0a 713b ab68 093d 3a0b d1bc
00000390: c473 ae3c 0451 ad3c 3b4c 2cbc 89b6 543c
000003a0: a277 123d 7495 a93c 48f2 f9bc 0494 88bc
000003b0: 68d2 1fbc 8c7b b8bb 5d63 05bd 86a6 1a3d
000003c0: 2a5a 453c 1877 80bc 75c9 0f3d c1e5 c43c
000003d0: bcd0 a43a c9e5 1abd 553e eabc dc2d 573c
000003e0: 6f06 863c e58d fb3c 5d2d 1cbd e1fa a5bc
000003f0: f098 c9bb 01c5 ab3c 61b9 d43c cafb 1b3d
