reflexion/result/epoch_0004/critic.pth (torch, 3223 bytes, 1 tensors)

weight f4 [1, 512]
00000000: e112 c03b 3b7c bd3c e59d f63b 9cd0 d3bc
00000010: d9d5 febb 03e1 f03c 6abf 6a3c 1351 133d
00000020: 0de5 1cbd 6fe2 c7bc 2208 253d fcc7 2c3d
00000030: 729e 083d 5aad 33bd b3ed 043d 9727 193d
00000040: 192f 853c 17dd 73bb 3a03 c3bc 5cda d53c
00000050: 75f8 293d c4cd bd3c acb7 23bc 39ed 873c
00000060: 86d1 a4bc 7679 2ebd 7fb3 8d3c c42a 9ebc
00000070: e49c 4f3c 65f1 e43b 5112 c43c 04c0 a53c
00000080: daba 333d 2177 1b3d 1701 a73a d454 113c
00000090: 7eac c5bb 0d51 9a3c 8475 18bb 8ea6 7539
000000a0: 7863 933c 6593 d7bc 11c4 703c e922 033c
000000b0: 53c6 29bd 2a75 12bc e35c 743c 3fce b23b
000000c0: 8042 09bd 03c1 9ebc 1af3 f83c 165f 803c
000000d0: eb04 25bd 83f6 993b c377 8c3c 1ec4 a83b
000000e0: cb5c 663b ab1b b03b 7ce6 d3bb d011 06bc
000000f0: c02d f13c 375d c03b eed1 f3bc 2e67 313d
00000100: aed4 a1b9 7412 edbc ff50 e13a 509e ff3b
00000110: 8e1d b5bc f9ac 25bc d32c 4cbc 5ae7 163c
00000120: ace5 2ebd 38b6 e03c 98f2 91bc 7b3f 21ba
00000130: e897 ae3b 574f 27bd c89c 123d 6e52 c4bc
00000140: 1293 febc e165 a6bc 550c 3dbb 498e f0bc
00000150: 90cf e6bc fed1 973c 2123 06bd 0b89 f03c
00000160: b08f 0b3d e02c 143c 611d d43c d9a9 ce3a
00000170: a119 c93c dad1 e43c 4770 203c bfb7 c8bc
00000180: 811a 223b 1bb5 efbc 3fde 2dbb f1e7 0f3c
00000190: b5c7 babb e3cd 0c3d bc2a 7cbc 1ecf 443b
000001a0: d962 03bb 8686 26bd 726c 603c 1a73 313d
000001b0: 9ca7 dabb f8db b03c 12b8 95bc a9c2 213d
000001c0: 1e6e cabc 5070 323d ced7 fabc 79ed 79bc
000001d0: 5c10 17bd 64af 26bd 650f 1dbd ae7c a7bc
000001e0: 4a56 633c c487 0d3d 6a80 db3c 8745 f5bc
000001f0: 0731 30bd 77ff 17bd 20e0 2b3d 9057 c33c
00000200: 21c2 343d 1e2c 9b3c d730 38bc c0eb ffbc
00000210: e3b2 f53c 2b8c d23c cfe7 25bd f203 c1bc
00000220: 33d5 98bc 526a ab3c aeb9 303d 64e7 1e3a
00000230: f17c 893c 1a8b ccbc 9544 0d3d 535b 053a
00000240: ee2f a33c a2da 383c dfcf bebc d688 e03a
00000250: 06ca 2ebc 8981 bfbc dce4 c4bb 99de 123d
00000260: c2b8 b63c b2db cdbb e199 c83a 4895 003d
00000270: 42a3 babc 8ba6 1abd 8683 84bc deb5 6e3c
00000280: fef8 fc3c aab9 0ebc 9c72 b63b 981c 003d
00000290: 7b6c 8e3b 6b77 993c 8049 0abc 5585 0ebd
000002a0: 6be7 423b 8b8b 1c3c 7edd 6dbc 3ce8 9b3b
000002b0: 69d1 543c 8455 223d 510a 9bbc f68c 733c
000002c0: f414 733b b947 103d 0d7c 18bd 8a9c 1f3d
000002d0: 6121 bbbc b743 c0bc eb62 24bd 3472 fb3c
000002e0: 04e5 1abd e9e2 92bb 789f f13c 065d 90bc
000002f0: b34f 213d 30e3 0b3d dd9c b6bc 9252 313d
00000300: d5d2 86bc 3cb5 64bc f443 0ebd e493 213d
00000310: f649 10bd ea5a 733b cc40 ab3c b0e4 923b
00000320: d1cf 293d 13ed bcbc 7945 ad3c 00f0 bc3a
00000330: d416 16bd d853 3a3c 28d1 30bd 691f 1a3d
00000340: f48c 0e3d 9fd6 a8bc 0b5e f93c 7f63 2ebd
00000350: 8f8a 6a3c 7a52 eabc 8c6d ce3c e302 29bd
00000360: 068c babc 7006 ea3c 58ed a7bb 199d d7bc
00000370: 747a 1dbd 04fc f03c 57eb edbb 437a cb3c
00000380: 5023 523c 566f 723b 0aaf 0a3d 94aa d2bc
00000390: 7363 b23c cbdd ae3c a548 37bc e51f 5d3c
000003a0: fa24 143d dac7 a73c 8b4a fcbc a14f 8dbc
000003b0: 61b4 1fbc fafc b3bb 8bd5 06bd d3bd 1c3d
000003c0: 1f58 463c 1877 80bc e792 103d 0916 c73c
000003d0: 9e0f c23a 9735 1dbd 1a32 ecbc 95d4 593c
000003e0: 6cf9 853c ba53 fc3c 361f 1dbd f51a a8bc
000003f0: f098 c9bb 637a ac3c a3a3 da3c fc7b 1c3d
0.0058616255 0.023130527 0.0075261467 -0.025856309 -0.0077769575 0.029404169 0.014327863 0.03596599
-0.038304377 -0.024399964 0.04029096 0.042182907 0.03335423 -0.043866493 0.03245325 0.03739127
0.01625781 -0.0037210637 -0.02380525 0.026105098 0.041496713 0.023169406 -0.009992521 0.016592609
-0.02011944 -0.042596303 0.017297504 -0.019307502 0.012671683 0.0069867843 0.023934515 0.020233162
0.043879367 0.037955407 0.0012741414 0.008870322 -0.0060325256 0.018837476 -0.0023263404 0.00023427067
0.017991766 -0.0263154 0.014695183 0.008003929 -0.041448902 -0.008939067 0.014914724 0.0054567154
-0.033510685 -0.019379145 0.030389357 0.01567034 -0.040287893 0.004698576 0.01714695 0.005150332
0.0035150524 0.005374392 -0.006466685 -0.008182958 0.02944076 0.005870487 -0.029763188 0.04331129
-0.00030866772 -0.028939463 0.0017190276 0.0078008547 -0.02210882 -0.010112041 -0.012461859 0.009210432
-0.0426995 0.027430639 -0.017815873 -0.0006151122 0.005328167 -0.04084715 0.03579405 -0.023965087
-0.031075988 -0.020312252 -0.0028846462 -0.029364722 -0.028175145 0.01853275 -0.032748345 0.029362222
0.034072578 0.009043902 0.025892915 0.0015767171 0.024548354 0.027932096 0.009792394 -0.02450168
0.0024735036 -0.029261163 -0.0026530174 0.0087833265 -0.0057000765 0.034376036 -0.015391048 0.0030030678
-0.0020047931 -0.040655635 0.01369773 0.04332266 -0.0066728126 0.021589264 -0.018276248 0.039492283
-0.024710711 0.04356414 -0.030620482 -0.015254372 -0.036880836 -0.04069461 -0.03834476 -0.020445194
0.013875553 0.034553304 0.026794631 -0.02994038 -0.043015506 -0.037108865 0.04196179 0.023845464
0.04413045 0.018941935 -0.011242113 -0.031240344 0.029992526 0.025701603 -0.040504273 -0.023561452
-0.018656349 0.02092472 0.043145828 0.00060617016 0.01678321 -0.024968673 0.034489233 0.0005087156
0.019920316 0.011282595 -0.02329248 0.0017130624 -0.010668283 -0.023377197 -0.0060087275 0.035856817
0.022304896 -0.0062822932 0.0015304649 0.031392366 -0.022782926 -0.037756484 -0.016175997 0.014569728
0.030880447 -0.008711258 0.0055678617 0.03127727 0.004346428 0.0187337 -0.008440375 -0.034795124
0.0029739987 0.009554754 -0.01451814 0.004757909 0.01298938 0.039632335 -0.018925818 0.014865151
0.0037091346 0.03522465 -0.03722768 0.038967647 -0.022843065 -0.023469789 -0.040133398 0.030694105
-0.037816063 -0.004482616 0.029494986 -0.017622482 0.039382648 0.03415221 -0.022291595 0.043291636
-0.016457954 -0.013959225 -0.034732774 0.03944768 -0.035226785 0.0037133046 0.020904921 0.004482828
0.041457955 -0.023062265 0.021151291 0.0014414787 -0.036642864 0.011372529 -0.043168217 0.03762761
0.034802392 -0.020610152 0.030440351 -0.042575356 0.0143152615 -0.028603781 0.02519872 -0.04126252
-0.022771847 0.028567523 -0.005124729 -0.026320027 -0.03844686 0.029417045 -0.0072607207 0.024838572
0.012825802 0.003699263 0.033858337 -0.025716104 0.021775937 0.021345994 -0.011186753 0.013496374
0.036168076 0.020481039 -0.030797264 -0.017249884 -0.0097475955 -0.0054928036 -0.032918494 0.038266968
0.012105971 -0.015681788 0.035296347 0.0243025 0.001480568 -0.038381185 -0.028832484 0.013295312
0.016354285 0.030801643 -0.038359843 -0.020520667 -0.006152265 0.021054452 0.026689356 0.03820418
