reflexion/result-old/epoch_0036/critic.pth (torch, 3223 bytes, 1 tensors)

weight f4 [1, 512]
000000 22 61 b2 3a 24 11 ae 3c e5 9d f6 3b 76 58 bd bc
       0.001360927 0.021248408 0.0075261467 -0.02311347
000010 d9 d5 fe bb 96 3d e6 3c 6a bf 6a 3c 27 2f 14 3d
       -0.0077769575 0.028105538 0.014327863 0.03617778
000020 59 2c 10 bd 3a 56 c1 bc db 28 12 3d 7b ca 21 3d
       -0.035198543 -0.023600686 0.035683494 0.03949974
000030 8a 13 fe 3c 1c 8f 29 bd 50 55 ff 3c 45 c9 0c 3d
       0.031015176 -0.041396245 0.03116861 0.034371633
000040 d3 8b 76 3c e8 82 7b bb 82 18 af bc b8 d1 c6 3c
       0.015047985 -0.0038377587 -0.02137399 0.024269924
000050 c7 06 13 3d 06 ba a1 3c 0d cb 42 bc 4b 4b 78 3c
       0.035895135 0.019742023 -0.011889231 0.01515467
000060 71 fb 92 bc 13 e0 17 bd 36 20 68 3c 92 06 9c bc
       -0.017942162 -0.03707893 0.014167836 -0.019046102
000070 14 e0 49 3c 8a e3 e0 3b db 95 b3 3c d9 45 a2 3c
       0.012321491 0.0068630623 0.021922043 0.019808697
000080 be 8d 2e 3d 70 14 0d 3d 78 52 91 ba fa 97 f0 3b
       0.042615645 0.03444332 -0.00110872 0.007342336
000090 38 93 b0 bb 7f 5c 8b 3c 5c 55 60 bb 5c e5 a2 3a
       -0.0053886436 0.017011879 -0.0034230566 0.0012427974
0000a0 a9 6d 89 3c f4 e9 b9 bc 2c 50 43 3c 4b 7b ad 3b
       0.016775923 -0.022694565 0.01192097 0.0052942387
0000b0 c5 07 23 bd b4 aa ee bb 59 78 4e 3c 88 82 d5 3b
       -0.03980233 -0.007283533 0.012601935 0.0065158047
0000c0 d8 3d f4 bc 56 c4 79 bc a2 52 f4 3c 31 c8 58 3c
       -0.029814646 -0.015244564 0.029824559 0.013231323
0000d0 2b 77 14 bd 52 0c c0 3b 87 cd 83 3c a3 8e 91 3b
       -0.03624646 0.0058608437 0.016089214 0.0044420525
0000e0 5e ca 7c 3b ab 1b b0 3b 89 95 d8 bb dc 8c e1 bb
       0.0038572769 0.005374392 -0.006609623 -0.006883247
0000f0 8d c1 dd 3c aa ca aa 3b 40 c9 e8 bc cc 8b 1e 3d
       0.027069831 0.0052121477 -0.028416276 0.03870754
000100 d4 7e e3 b9 cc b1 dd bc 21 4e 0e 3b 3f ad 08 3c
       -0.00043391308 -0.02706232 0.002171405 0.008342086
000110 66 67 a0 bc f1 f5 fb bb 00 4c 39 bc 17 27 28 3c
       -0.019580554 -0.0076892306 -0.011309624 0.010263226
000120 34 26 20 bd fd 50 cf 3c c8 29 79 bc 39 44 45 ba
       -0.039098933 0.025307173 -0.015207715 -0.00075251196
000130 c1 1a c6 3b 19 a4 21 bd b9 06 03 3d e5 4c ba bc
       0.00604567 -0.039463136 0.031988833 -0.022741744
000140 cc 19 e1 bc 12 b9 8e bc 58 40 6f bb ca c0 de bc
       -0.027478121 -0.017422233 -0.0036506858 -0.027191538
000150 df b0 cc bc 39 f9 88 3c f3 8e ff bc 5a a2 e1 3c
       -0.024986682 0.016720401 -0.031196093 0.027543236
000160 ec d3 00 3d b8 ba 11 3c b1 aa c8 3c b8 e7 a0 ba
       0.031452104 0.008894615 0.024495455 -0.0012276089
000170 3b b2 b6 3c 37 69 dc 3c ae c9 02 3c 71 3d ae bc
       0.022301784 0.02690564 0.0079826545 -0.021269532
000180 a1 9d ca 3a 7a 5a d7 bc 3a e6 97 bb b1 1a ae 3b
       0.0015458354 -0.02628826 -0.0046355994 0.0053132405
000190 88 fa 30 bb 7a d4 fb 3c 55 44 75 bc ea e3 00 3b
       -0.0027004797 0.030740965 -0.014969905 0.0019667097
0001a0 5f 65 81 ba b6 f7 16 bd 66 e6 5b 3c da a6 23 3d
       -0.000987213 -0.03685733 0.0134216305 0.039954044
0001b0 2f 2f ac bb 15 be 9e 3c 91 27 84 bc e4 f1 18 3d
       -0.005254648 0.019377748 -0.016132148 0.03734006
0001c0 76 b4 ad bc 8b 6c 26 3d aa 72 ea bc 97 7d 48 bc
       -0.021204215 0.04063086 -0.02861913 -0.012236974
0001d0 5c 10 17 bd 77 e6 1c bd 09 7e 0e bd fe b7 9a bc
       -0.036880836 -0.038305726 -0.034788165 -0.018886562
0001e0 a6 18 51 3c a0 d4 01 3d 5c bf c1 3c 5b 7b d7 bc
       0.012762224 0.031696916 0.023650818 -0.026303938
0001f0 cd a1 1c bd f9 3b 09 bd 5f 39 22 3d 5b c1 b0 3c
       -0.038240243 -0.03350446 0.039605495 0.021576574
000200 21 c2 34 3d b4 a0 81 3c d2 ee 35 bc 04 f8 e6 bc
       0.04413045 0.0158237 -0.0111043025 -0.028194435
000210 a6 5f da 3c 71 3f ba 3c 44 ee 14 bd 32 76 b1 bc
       0.026656937 0.02273533 -0.03636004 -0.021662805
000220 1c 99 95 bc 59 74 93 3c b1 61 21 3d 7a 54 81 bb
       -0.018261485 0.017999815 0.039399806 -0.003946838
000230 68 09 7d 3c 1a 8b cc bc 43 a8 fd 3c d7 bc 7d ba
       0.015444137 -0.024968673 0.030964023 -0.00096793234
000240 e8 d1 9c 3c a7 a1 18 3c 90 2c bf bc 0d 26 05 3b
       0.01914306 0.009315885 -0.023336679 0.002031687
000250 c4 c7 0d bc e2 e7 b4 bc 30 79 b2 bb f3 81 0e 3d
       -0.008653585 -0.022083227 -0.0054465756 0.034791898
000260 b1 68 b0 3c 06 3e e5 bb 96 f2 d7 3a 6a 13 ed 3c
       0.021534296 -0.006995919 0.0016475494 0.028939921
000270 70 c3 b5 bc 1b c2 13 bd 96 82 5e bc 42 9d 46 3c
       -0.022187918 -0.036073785 -0.013580939 0.012122454
000280 13 47 f6 3c 2f 64 ea bb 05 21 ba 3b 7d ef f0 3c
       0.030063188 -0.007153056 0.0056802058 0.029411072
000290 91 8f 46 3b 70 31 94 3c bc 0a a5 bb 72 69 05 bd
       0.0030297975 0.01808998 -0.00503668 -0.032571264
0002a0 3a 4c 47 3b 4c 52 f5 3b a2 97 5e bc 5b d2 df 3b
       0.0030410425 0.007486617 -0.013585957 0.0068304962
0002b0 73 a5 45 3c 2f 67 1e 3d 0e da 93 bc 7b 13 52 3c
       0.012063372 0.038672622 -0.018048313 0.012822027
0002c0 26 6b 06 3b 5d f6 f7 3c 8e e4 13 bd 44 59 11 3d
       0.0020510643 0.030268842 -0.03610664 0.03548552
0002d0 b4 d2 96 bc c2 9e a1 bc fc 26 22 bd 40 18 ea 3c
       -0.018411018 -0.019729022 -0.03958796 0.028576016
0002e0 84 0b 0e bd d4 3a 56 bb 57 94 ee 3c 2d 0c 77 bc
       -0.03467895 -0.0032688873 0.029123468 -0.0150785865
0002f0 77 1b 17 3d 31 ab 00 3d 94 46 a5 bc b7 30 25 3d
       0.036891427 0.03141326 -0.020175256 0.04032966
000300 13 0f 71 bc b1 83 31 bc 38 62 03 bd fa 62 17 3d
       -0.014713067 -0.01083462 -0.03207609 0.036959626
000310 84 7c ff bc 6e a0 a1 3a cd 67 a2 3c fc c2 c3 3b
       -0.031187303 0.0012331137 0.019824887 0.0059741717
000320 08 28 20 3d 8f 93 ab bc 33 f7 9a 3c 4f 26 eb 38
       0.039100677 -0.020944385 0.018916702 0.00011212809
000330 8e 12 0b bd b2 9c 28 3c 57 a9 28 bd 60 fa 14 3d
       -0.033953242 0.010291265 -0.04117712 0.03637159
000340 4e ab 03 3d 22 5f 92 bc b7 2b db 3c 68 2f 1f bd
       0.03214579 -0.017867628 0.026754243 -0.03886357
000350 ac b3 3f 3c ad 12 de bc 50 74 c3 3c 9a 04 21 bd
       0.011700552 -0.027108515 0.023859173 -0.03931103
000360 e7 34 ad bc d6 c3 c9 3c 2f dc ba bb ad 41 bd bc
       -0.02114339 0.024629515 -0.0057025175 -0.023102606
000370 44 fd 11 bd c1 24 df 3c 0a f8 0b bc 3e 9f b5 3c
       -0.035641924 0.027239205 -0.008543024 0.02217066
000380 85 88 48 3c df fb c9 3b 42 d5 f2 3c a1 2d ad bc
       0.01223958 0.0061640586 0.029642705 -0.021139922
000390 d7 9c 99 3c 2e cf 8e 3c 94 aa 35 bc 40 b8 48 3c
       0.018751545 0.017432775 -0.011088032 0.01225096
0003a0 f3 47 00 3d 2c f8 b0 3c e8 69 e4 bc 3d f7 67 bc
       0.031318616 0.021602713 -0.027882531 -0.014158067
0003b0 4d 10 16 bc 4f 96 47 bb b0 fc e9 bc 8e 37 0e 3d
       -0.00915916 -0.003045458 -0.028562874 0.03472095
0003c0 0d 8b 3e 3c 1a 3c 50 bc 86 9a 08 3d 62 c8 b0 3c
       0.011629832 -0.012709642 0.03335049 0.021579925
0003d0 22 9c 15 3a 47 ac 0b bd e4 d6 d5 bc e6 e0 50 3c
       0.00057071645 -0.034099843 -0.026103444 0.0127489325
0003e0 f7 95 8b 3c 64 e2 e8 3c bc 4d 13 bd 25 51 8d bc
       0.017039282 0.028428264 -0.035962805 -0.017250607
0003f0 da b0 c0 bb 09 ef 9c 3c 51 43 cb 3c 49 a2 18 3d
       -0.0058804573 0.01915695 0.024812372 0.037264142
