reflexion/result/epoch_0009/critic.pth (torch, 3223 bytes, 1 tensors)

weight f4 [1, 512]
00000000: 8a69 6d3b a75c b53c e59d f63b eead c9bc
00000010: d9d5 febb 00c1 ec3c 6abf 6a3c 1afb 123d
00000020: 91fe 16bd 243a c5bc b630 1d3d 5383 263d
00000030: 5999 043d 8698 30bd 38a6 023d f41d 143d
00000040: cf4c 803c 38de 6dbb 5806 b9bc 56ad cf3c
00000050: 13e1 223d 2ccd af3c 9cc2 2bbc f1f9 833c
00000060: a1d1 9abc 10c7 25bd 0a55 853c 8e76 9ebc
00000070: 9c9e 4b3c 4320 e33b ebd2 b63c b4ae a43c
00000080: d60e 313d a73c 183d 6282 7a3a 3589 063c
00000090: 3893 b0bb 7201 943c 4395 16bb ac6c db39
000000a0: 7618 913c a403 d0bc 67eb 5d3c 56c0 f63b
000000b0: 0537 25bd 8901 0ebc 7922 663c 40e6 b03b
000000c0: e01d 04bd 19cc 91bc 7a64 f43c fc26 733c
000000d0: b853 21bd 58ab 9b3b 05ac 873c 739e a43b
000000e0: 0ec3 753b ab1b b03b ad67 cabb a170 f8bb
000000f0: f0df ea3c 5546 bc3b 35db f0bc ea33 2a3d
00000100: 7d4b 1eba 351e eabc 3e84 0d3b 509e ff3b
00000110: 11ab abbc b397 14bc 4e35 41bc d414 1b3c
00000120: 40fa 2abd cef5 d93c a527 8fbc 7b3f 21ba
00000130: ea56 ae3b 21a2 25bd 54b1 0d3d 4839 c1bc
00000140: d12a f0bc f2a0 9fbc 3317 4cbb 2fd8 ebbc
00000150: ff6d dfbc 0b70 913c 490b 02bd fabf e83c
00000160: 5bc9 063d 6eec 0e3c 4c71 cf3c b349 733a
00000170: 7087 c03c 3991 e33c 5429 163c b2aa bcbc
00000180: d1d7 013b 2345 e2bc 04b1 69bb a5e1 e93b
00000190: ed67 77bb d4d4 053d dcef 78bc 1003 283b
000001a0: 93b9 ebba 3a27 21bd 66a1 5e3c e826 2e3d
000001b0: 1e32 c5bb ff94 aa3c a02c 8bbc 0f11 1e3d
000001c0: 5cdd bdbc 48ed 2b3d a5df f4bc bee6 6bbc
000001d0: 5c10 17bd 15e5 22bd dbc8 18bd e75e a0bc
000001e0: eb74 5f3c 81cc 073d a885 d13c cbbe e6bc
000001f0: ca65 2cbd 2ab8 14bd 78d0 263d 7198 be3c
00000200: 21c2 343d 608e 933c f5ce 34bc 0736 f4bc
00000210: abc2 ed3c 36ca c63c f281 24bd 883e bcbc
00000220: 7293 98bc 3ceb a13c 4182 2b3d 31fa 96ba
00000230: 61a3 833c 1a8b ccbc d8c7 083d d79b 7e38
00000240: 97ad a03c c2e5 2b3c fb6e bcbc 9e8a fa3a
00000250: 284d 21bc 1559 babc a3e2 c8bb fbe3 0f3d
00000260: 35c6 b53c d7ed d4bb 1432 d039 1690 f83c
00000270: 9945 b9bc 95fd 17bd a87d 79bc 2d36 643c
00000280: 4e47 f93c aab9 0ebc e447 b93b 915c f73c
00000290: cb41 793b 5fc4 973c af64 f0bb 47da 0abd
000002a0: 200c 333b 56c9 123c 5539 6cbc b6dc b83b
000002b0: 26d7 4f3c 1a48 203d f2d7 96bc ab14 623c
000002c0: 1152 433b 50ce 0a3d 31c8 14bd b344 193d
000002d0: f747 a8bc bcd0 b3bc eb62 24bd 2d03 f63c
000002e0: 94ba 18bd 0cda 88bb fc43 f03c c1ae 88bc
000002f0: b427 1b3d c70f 083d 3c34 b2bc 9c67 2d3d
00000300: 9d68 81bc b3b0 50bc 744c 0bbd 1f5f 1c3d
00000310: 9533 0abd b143 5f3b 0a1e a43c 5ed5 963b
00000320: cc14 253d bfc7 b6bc 2325 a53c 6768 9a39
00000330: a930 13bd 22dc 373c 7928 2ebd 5e9c 173d
00000340: 6b0d 0b3d 1638 9cbc e049 ed3c 2646 28bd
00000350: 8ebd 543c cb13 e2bc 1fff c73c 6949 25bd
00000360: a584 b5bc 33a3 e43c cb92 acbb 9dc0 d7bc
00000370: 747a 1dbd e50b ef3c 0a1e 03bc f966 c13c
00000380: 9892 4a3c 919b 9d3b 755d 053d df8f c1bc
00000390: c94c a73c 6fb7 a63c b9bc 35bc 3958 483c
000003a0: 596d 0c3d 9c4a af3c 2851 f5bc 62d8 87bc
000003b0: 0b81 14bc e89a 98bb b808 03bd f23e 163d
000003c0: 39b9 433c 96b5 6bbc 3a55 0d3d 7b38 bf3c
000003d0: bd5c 923a 588e 18bd c328 e7bc ffbd 5b3c
000003e0: 77c0 863c daa0 f83c a351 16bd 4104 a1bc
000003f0: ab36 bcbb af3c aa3c 64b5 d63c bb04 1b3d
0.0036226236 0.022138907 0.0075261467 -0.024619069 -0.0077769575 0.028900623 0.014327863 0.035884
-0.036863867 -0.024075575 0.038376532 0.040652584 0.032372806 -0.043114208 0.0318968 0.036161378
0.015661625 -0.0036295783 -0.022586033 0.025351208 0.03976543 0.021460138 -0.01048341 0.016110392
-0.018898787 -0.040473044 0.016275901 -0.01934364 0.012427952 0.006931336 0.02231737 0.020102836
0.04322704 0.037167218 0.0009556172 0.008211424 -0.0053886436 0.018067095 -0.002297715 0.00041851902
0.01771186 -0.025392361 0.013544894 0.0075302524 -0.040335674 -0.008667358 0.014046305 0.0053985417
-0.032255054 -0.017797517 0.029833067 0.014840838 -0.03938648 0.0047506504 0.016561517 0.0050237714
0.0037500295 0.005374392 -0.00617691 -0.007581786 0.028671235 0.005745689 -0.029401401 0.041553415
-0.00060384703 -0.028578857 0.0021593715 0.0078008547 -0.020955594 -0.009069371 -0.011792494 0.009465415
-0.041742563 0.026606467 -0.017474959 -0.0006151122 0.0053204196 -0.04043782 0.03459294 -0.023586884
-0.029317291 -0.019485924 -0.0031141757 -0.028789608 -0.02727413 0.017753622 -0.031749044 0.028411854
0.03290687 0.008723361 0.025322579 0.00092806964 0.023502082 0.027779208 0.009165127 -0.023030613
0.0019812474 -0.027620858 -0.0035658488 0.0071374946 -0.0037751154 0.03267367 -0.015193906 0.002563659
-0.0017984383 -0.03934405 0.013588285 0.042517573 -0.0060179373 0.020823 -0.016989052 0.038590487
-0.023176841 0.041974336 -0.029891798 -0.014398275 -0.036880836 -0.03976925 -0.037300926 -0.019576503
0.013638715 0.033154014 0.025576428 -0.028167149 -0.04208926 -0.036308445 0.040726155 0.02326605
0.04413045 0.018012226 -0.0110356705 -0.029810918 0.029023489 0.024266344 -0.040162988 -0.022979036
-0.018624995 0.019765489 0.041872267 -0.0011518655 0.016069116 -0.024968673 0.03339371 6.0703456e-05
0.019614024 0.01049179 -0.023002138 0.0019114797 -0.009845056 -0.022747556 -0.006130533 0.03512953
0.022189239 -0.0064980793 0.00039710163 0.030342143 -0.022616195 -0.03710707 -0.015227713 0.013928932
0.030429509 -0.008711258 0.005654322 0.030195506 0.00380336 0.018526254 -0.007336221 -0.03389957
0.002732046 0.008959135 -0.014417966 0.005641545 0.012685573 0.03913126 -0.018413518 0.013798873
0.0029803554 0.03388816 -0.03632373 0.037419032 -0.020542128 -0.021950118 -0.040133398 0.030030811
-0.03728731 -0.004176384 0.029329292 -0.016684892 0.03787966 0.03321817 -0.021753423 0.042335138
-0.015796954 -0.012737441 -0.03400846 0.038176652 -0.0337406 0.0034067447 0.020033855 0.004603072
0.040303037 -0.022312043 0.02015931 0.00029450955 -0.035935078 0.011221917 -0.042519066 0.037014358
0.033948343 -0.019069713 0.02896589 -0.041082524 0.0129846465 -0.027597329 0.024413643 -0.040353213
-0.022157976 0.02790985 -0.0052665225 -0.026336962 -0.03844686 0.029180476 -0.008002767 0.023608672
0.012364052 0.0048098047 0.03255983 -0.023628173 0.020422356 0.02035114 -0.011092358 0.012228065
0.03428397 0.021397881 -0.029945925 -0.016582672 -0.009063969 -0.004657138 -0.031990737 0.036681123
0.011946016 -0.014386555 0.034505107 0.023342362 0.0011166554 -0.037245125 -0.028217679 0.013411998
0.016449196 0.030350138 -0.03669895 -0.019655349 -0.0057438216 0.02078089 0.02620954 0.03784631
