reflexion/result/epoch_0001/critic.pth (torch, 3223 bytes, 1 tensors)

weight f4 [1, 512]
0.0058616255 0.023132827 0.0075261467 -0.025858577 -0.0077769575 0.029404169 0.014327863 0.035966866
-0.038304377 -0.024399964 0.040298525 0.042188164 0.03335423 -0.043866493 0.03245325 0.037392627
0.01625781 -0.0037189666 -0.02380946 0.026107095 0.041496713 0.02317121 -0.00998986 0.016594268
-0.02011944 -0.04259641 0.017297504 -0.019307278 0.012673139 0.0069871815 0.023934515 0.020234292
0.043879367 0.037955407 0.0012741414 0.008872198 -0.0060325256 0.018838868 -0.0023273218 0.00023514358
0.017992834 -0.026314499 0.014697137 0.008003929 -0.041448902 -0.008939067 0.014916068 0.0054567154
-0.033525057 -0.019379657 0.030389357 0.01567034 -0.04029004 0.00469753 0.01714695 0.0051511168
0.0035150524 0.005374392 -0.0064624343 -0.008182958 0.02944322 0.005870487 -0.029760908 0.043316413
-0.00030866772 -0.028939463 0.0017190276 0.0078008547 -0.02210882 -0.010115998 -0.012461859 0.0092112515
-0.042699177 0.02743398 -0.017815873 -0.0006151122 0.0053291335 -0.040846657 0.03579405 -0.023965087
-0.031078923 -0.020311683 -0.0028846462 -0.029364148 -0.02817562 0.01853275 -0.0327405 0.029362941
0.03407415 0.009043902 0.02589706 0.0015786854 0.02454934 0.027932096 0.009798232 -0.02450168
0.0024735036 -0.029276978 -0.0026515676 0.008786071 -0.0057000765 0.034378126 -0.0153915975 0.0030046836
-0.0020046856 -0.040657062 0.01369773 0.04332422 -0.0066783787 0.02159547 -0.018276248 0.039492283
-0.024711067 0.043565914 -0.03061953 -0.015254372 -0.036880836 -0.040694118 -0.03834583 -0.020445194
0.013876564 0.034553304 0.026796203 -0.029940221 -0.043015506 -0.037109353 0.041963067 0.023845464
0.04413045 0.018943116 -0.011242113 -0.031240344 0.02999517 0.025704682 -0.04051962 -0.023560863
-0.018656349 0.020938646 0.043146446 0.00061016367 0.016788282 -0.024968673 0.034494005 0.00051039725
0.019921375 0.011282595 -0.023291988 0.0017138764 -0.010671283 -0.023377197 -0.0060106427 0.035856817
0.022304896 -0.0062822932 0.0015392556 0.031394616 -0.022782926 -0.037755605 -0.016176222 0.014569728
0.030880447 -0.008711258 0.0055690487 0.03128389 0.004346975 0.018735526 -0.008440375 -0.03479554
0.0029741642 0.009554754 -0.01451814 0.0047582802 0.012990112 0.039632335 -0.018925287 0.014865151
0.003711096 0.035227973 -0.03722768 0.038967647 -0.022844363 -0.023473358 -0.040133398 0.030704264
-0.037816927 -0.0044830423 0.029494986 -0.017622482 0.03938444 0.03415384 -0.022291595 0.043293778
-0.016457954 -0.013960444 -0.034732774 0.03945137 -0.035227448 0.003719825 0.020904921 0.0044843173
0.041462176 -0.023062265 0.021152016 0.0014408889 -0.03664098 0.011374 -0.04316323 0.03762761
0.034804266 -0.020610718 0.030455697 -0.042575356 0.0143152615 -0.028603781 0.025210904 -0.04126252
-0.022771847 0.028567523 -0.0051237666 -0.026320027 -0.03844686 0.029417045 -0.0072602555 0.02484082
0.012825802 0.0036979043 0.03386581 -0.025716696 0.021778377 0.021350032 -0.011186753 0.013496374
0.036168076 0.02047303 -0.030799067 -0.017251885 -0.009737718 -0.0054928036 -0.032918103 0.038266968
0.012105971 -0.015681788 0.035298757 0.0243025 0.0014817344 -0.038381185 -0.028832356 0.013295312
0.016355067 0.030801643 -0.03836044 -0.020531837 -0.006152265 0.021054452 0.026690384 0.03820418
00000000: e112 c03b 0e81 bd3c e59d f63b 5ed5 d3bc
00000010: d9d5 febb 03e1 f03c 6abf 6a3c fe51 133d
00000020: 0de5 1cbd 6fe2 c7bc 1110 253d 7fcd 2c3d
00000030: 729e 083d 5aad 33bd b3ed 043d 0329 193d
00000040: 192f 853c e8b9 73bb 0f0c c3bc 8cde d53c
00000050: 75f8 293d 8dd1 bd3c 82ac 23bc b4f0 873c
00000060: 86d1 a4bc 9379 2ebd 7fb3 8d3c 4c2a 9ebc
00000070: ffa2 4f3c baf4 e43b 5112 c43c 63c2 a53c
00000080: daba 333d 2177 1b3d 1701 a73a b25c 113c
00000090: 7eac c5bb f853 9a3c fb85 18bb e090 7639
000000a0: b565 933c 8191 d7bc 43cc 703c e922 033c
000000b0: 53c6 29bd 2a75 12bc 8662 743c 3fce b23b
000000c0: 9251 09bd 16c2 9ebc 1af3 f83c 165f 803c
000000d0: 2b07 25bd bded 993b c377 8c3c b3ca a83b
000000e0: cb5c 663b ab1b b03b d4c2 d3bb d011 06bc
000000f0: e832 f13c 375d c03b 26cd f3bc 8d6c 313d
00000100: aed4 a1b9 7412 edbc ff50 e13a 509e ff3b
00000110: 8e1d b5bc 92bd 25bc d32c 4cbc caea 163c
00000120: 55e5 2ebd 3abd e03c 98f2 91bc 7b3f 21ba
00000130: 03a0 ae3b d34e 27bd c89c 123d 6e52 c4bc
00000140: 3a99 febc b064 a6bc 550c 3dbb 158d f0bc
00000150: 8fd0 e6bc fed1 973c e71a 06bd 8d8a f03c
00000160: 5691 0b3d e02c 143c 1226 d43c e4eb ce3a
00000170: b31b c93c dad1 e43c c388 203c bfb7 c8bc
00000180: 811a 223b 46d6 efbc ecc5 2dbb 74f3 0f3c
00000190: b5c7 babb 14d0 0c3d 0a2d 7cbc 3aea 443b
000001a0: 0b61 03bb 0588 26bd 726c 603c bd74 313d
000001b0: 4dd6 dabb fce8 b03c 12b8 95bc a9c2 213d
000001c0: dd6e cabc 2c72 323d cfd5 fabc 79ed 79bc
000001d0: 5c10 17bd e0ae 26bd 8410 1dbd ae7c a7bc
000001e0: 875a 633c c487 0d3d b683 db3c 3245 f5bc
000001f0: 0731 30bd faff 17bd 77e1 2b3d 9057 c33c
00000200: 21c2 343d 982e 9b3c d730 38bc c0eb ffbc
00000210: 6eb8 f53c a092 d23c e7f7 25bd b602 c1bc
00000220: 33d5 98bc 8687 ab3c 54ba 303d 64f3 1f3a
00000230: 9487 893c 1a8b ccbc 9649 0d3d 2ecc 053a
00000240: 2732 a33c a2da 383c d7ce bebc 26a4 e03a
00000250: 9bd6 2ebc 8981 bfbc edf4 c4bb 99de 123d
00000260: c2b8 b63c b2db cdbb d9c0 c93a a497 003d
00000270: 42a3 babc 9fa5 1abd ff83 84bc deb5 6e3c
00000280: fef8 fc3c aab9 0ebc 917c b63b 8923 003d
00000290: 1271 8e3b 3f7b 993c 8049 0abc c585 0ebd
000002a0: 32ea 423b 8b8b 1c3c 7edd 6dbc 59eb 9b3b
000002b0: 7bd4 543c 8455 223d 3409 9bbc f68c 733c
000002c0: dc35 733b 354b 103d 0d7c 18bd 8a9c 1f3d
000002d0: 1a24 bbbc 334b c0bc eb62 24bd 8287 fb3c
000002e0: ece5 1abd 7ce6 92bb 789f f13c 065d 90bc
000002f0: 9451 213d e6e4 0b3d dd9c b6bc d154 313d
00000300: d5d2 86bc 59ba 64bc f443 0ebd c297 213d
00000310: a84a 10bd 4fc8 733b cc40 ab3c 2ef1 923b
00000320: 3ed4 293d 13ed bcbc fe46 ad3c 35dc bc3a
00000330: da14 16bd 045a 3a3c edcb 30bd 691f 1a3d
00000340: eb8e 0e3d cfd7 a8bc 3a7e f93c 7f63 2ebd
00000350: 8f8a 6a3c 7a52 eabc 1987 ce3c e302 29bd
00000360: 068c babc 7006 ea3c 45e5 a7bb 199d d7bc
00000370: 747a 1dbd 04fc f03c 70e7 edbb fa7e cb3c
00000380: 5023 523c 8a58 723b e0b6 0a3d d2ab d2bc
00000390: 9168 b23c 43e6 ae3c a548 37bc e51f 5d3c
000003a0: fa24 143d 0eb7 a73c 534e fcbc d353 8dbc
000003b0: f38a 1fbc fafc b3bb 22d5 06bd d3bd 1c3d
000003c0: 1f58 463c 1877 80bc 6e95 103d 0916 c73c
000003d0: c236 c23a 9735 1dbd d531 ecbc 95d4 593c
000003e0: 10fb 853c ba53 fc3c d61f 1dbd 6232 a8bc
000003f0: f098 c9bb 637a ac3c cba5 da3c fc7b 1c3d
