reflexion/result/epoch_0001/critic.pth (torch, 3223 bytes, 1 tensors)

weight f4 [1, 512]
0.0055795265 0.022813147 0.0075261467 -0.025552716 -0.0077769575 0.029298117 0.014327863 0.036046516
-0.03791424 -0.024179194 0.040024754 0.041850872 0.0330485 -0.043751612 0.03213671 0.03716818
0.016071968 -0.0037571767 -0.023560889 0.025955144 0.04116295 0.022926625 -0.010135206 0.016534708
-0.020060787 -0.04229222 0.01728902 -0.019293472 0.012650775 0.006995304 0.023961732 0.02017354
0.04361915 0.037742745 0.0013269596 0.008734857 -0.0060325256 0.018760152 -0.002351751 0.00023775105
0.017924907 -0.026173117 0.014463365 0.008003929 -0.041302998 -0.008747231 0.014586597 0.0055685486
-0.03327573 -0.019194461 0.030492257 0.015567014 -0.040091366 0.004892059 0.017191892 0.005108399
0.003572809 0.005374392 -0.0065122913 -0.007974215 0.029333178 0.005878799 -0.029918885 0.043040894
-0.00030866772 -0.028595364 0.0017190276 0.0078008547 -0.021700026 -0.0095946565 -0.01232239 0.009283102
-0.042541392 0.027288362 -0.017776331 -0.0006151122 0.0053320527 -0.040760465 0.03548331 -0.02367001
-0.030820781 -0.02020272 -0.0028846462 -0.029319594 -0.028034693 0.01833509 -0.032611333 0.029379314
0.033907153 0.009365314 0.025549803 0.0014444361 0.024357524 0.027874248 0.009697431 -0.024440402
0.0024735036 -0.028948199 -0.002893387 0.008531031 -0.005449373 0.034045834 -0.015308416 0.0029178066
-0.0019458407 -0.040390074 0.0137900915 0.043182723 -0.006561385 0.021445477 -0.018138481 0.039261393
-0.024517197 0.043292195 -0.03057647 -0.015254372 -0.036880836 -0.040533483 -0.03818188 -0.020335462
0.013875644 0.034392305 0.02658624 -0.029797535 -0.04258809 -0.03696622 0.041854337 0.023816008
0.04413045 0.01879698 -0.011292629 -0.031240344 0.029683596 0.025627311 -0.040227193 -0.023490684
-0.018803572 0.020734102 0.043036178 0.00026530176 0.016512327 -0.024968673 0.03425793 0.00041890572
0.01986243 0.011282595 -0.02328932 0.0017681038 -0.010490665 -0.023377197 -0.005895506 0.035935003
0.022304896 -0.0061717597 0.001555913 0.031248625 -0.022782926 -0.037694868 -0.01606049 0.014506358
0.030942446 -0.008711258 0.0055933148 0.03103024 0.0042777965 0.018370176 -0.008394288 -0.034593344
0.002972208 0.009698886 -0.01451814 0.004740414 0.012988085 0.039531577 -0.018855747 0.014944325
0.0035771304 0.0348965 -0.037018925 0.038767155 -0.022659276 -0.023324534 -0.040133398 0.030361746
-0.03755614 -0.004433427 0.029494986 -0.017372642 0.039219465 0.03394339 -0.022171084 0.043125127
-0.016302496 -0.013760165 -0.034543317 0.039118133 -0.035143442 0.003591909 0.020904921 0.0044409567
0.041287262 -0.022803076 0.021030352 0.0011691122 -0.03632109 0.0112932995 -0.04289212 0.037447352
0.03461925 -0.020351665 0.030212348 -0.042343315 0.014179121 -0.028463552 0.025088504 -0.040920988
-0.022845704 0.028452275 -0.0051493044 -0.02646149 -0.03844686 0.029318672 -0.0073275035 0.024691954
0.012770537 0.003621321 0.03353761 -0.0255663 0.021378106 0.021122405 -0.010797857 0.013166969
0.0361134 0.020678956 -0.03072546 -0.016991258 -0.009898029 -0.0054144305 -0.03282274 0.03818093
0.012105971 -0.01546462 0.03518899 0.02424273 0.0014042995 -0.03808186 -0.028756998 0.013295312
0.016377073 0.030706473 -0.038192086 -0.020358665 -0.006152265 0.021042101 0.026562298 0.038165707
00000000: 76d4 b63b a3e2 ba3c e59d f63b ee53 d1bc
00000010: d9d5 febb 9b02 f03c 6abf 6a3c 83a5 133d
00000020: f64b 1bbd 7213 c6bc fff0 233d d26b 2b3d
00000030: dd5d 073d e434 33bd c8a1 033d a93d 183d
00000040: 5ca9 833c f73a 76bb c402 c1bc e29f d43c
00000050: 7b9a 283d 9ed0 bb3c 230e 26bc cc73 873c
00000060: 8556 a4bc 9b3a 2dbd b4a1 8d3c 580d 9ebc
00000070: 3245 4f3c dd38 e53b 654b c43c fb42 a53c
00000080: fea9 323d 2398 1a3d 60ed ad3a a51c 0f3c
00000090: 7eac c5bb e4ae 993c d61f 1abb d04c 7939
000000a0: 41d7 923c 0169 d6bc c0f7 6c3c e922 033c
000000b0: 552d 29bd 8c50 0fbc 9ffc 6e3c 5f78 b63b
000000c0: 224c 08bd b43d 9dbc e6ca f93c ca0c 7f3c
000000d0: d836 24bd 914d a03b 03d6 8c3c 5b64 a73b
000000e0: ca25 6a3b ab1b b03b 0f65 d5bb 48a6 02bc
000000f0: 224c f03c f1a2 c03b 7318 f5bc a64b 303d
00000100: aed4 a1b9 d340 eabc ff50 e13a 509e ff3b
00000110: 41c4 b1bc e832 1dbc dae3 49bc 2718 183c
00000120: e23f 2ebd d88b df3c ab9f 91bc 7b3f 21ba
00000130: 80b8 ae3b 72f4 26bd f356 113d 9ce7 c1bc
00000140: dd7b fcbc 2d80 a5bc 550c 3dbb a52f f0bc
00000150: 03a9 e5bc 7833 963c 7693 05bd e3ac f03c
00000160: 3ae2 0a3d f970 193c d24d d13c 3c53 bd3a
00000170: 6e89 c73c 8958 e43c f9e1 1e3c 3d37 c8bc
00000180: 811a 223b c624 edbc fb9e 3dbb bdc5 0b3c
00000190: a790 b2bb a573 0b3d 27d0 7abc ac38 3f3b
000001a0: 940b ffba 1070 25bd d6ef 613c 5ee0 303d
000001b0: e300 d7bb 6dae af3c 2797 94bc 8ed0 203d
000001c0: 4ad8 c8bc 2853 313d 817b fabc 79ed 79bc
000001d0: 5c10 17bd 7006 26bd 9a64 1cbd 8e96 a6bc
000001e0: ab56 633c f2de 0c3d 63cb d93c f619 f4bc
000001f0: d970 2ebd e469 17bd 746f 2b3d ca19 c33c
00000200: 21c2 343d 20fc 993c b804 39bc c0eb ffbc
00000210: 032b f33c 5ef0 d13c 45c5 24bd 896f c0bc
00000220: f309 9abc 90da a93c b446 303d 3318 8b39
00000230: dc44 873c 1a8b ccbc 0b52 0c3d 93a0 db39
00000240: 89b6 a23c a2da 383c 3ec9 bebc b8bf e73a
00000250: 0ae1 2bbc 8981 bfbc 172f c1bb 9530 133d
00000260: c2b8 b63c 793c cabb c7ef cb3a 1efd ff3c
00000270: 42a3 babc ef65 1abd 4a91 83bc 13ac 6d3c
00000280: 037b fd3c aab9 0ebc 2048 b73b 2133 fe3c
00000290: c22c 8c3b 0d7d 963c 3288 09bc c0b1 0dbd
000002a0: 60c9 423b 14e8 1e3c 7edd 6dbc 7a55 9b3b
000002b0: facb 543c ddeb 213d 5e77 9abc 0bd9 743c
000002c0: 4a6e 6a3b a2ef 0e3d 28a1 17bd 4fca 1e3d
000002d0: f29f b9bc 1813 bfbc eb62 24bd 32b9 f83c
000002e0: 78d4 19bd 4846 91bb 789f f13c 1251 8ebc
000002f0: 97a4 203d 3908 0b3d 22a0 b5bc f9a3 303d
00000300: d08c 85bc 5172 61bc 4b7d 0dbd 563a 203d
00000310: 92f2 0fbd 3c66 6b3b cc40 ab3c 7285 913b
00000320: d51c 293d 84cd babc d847 ac3c e53c 993a
00000330: 6cc5 14bd 8807 393c a6af 2fbd 6562 193d
00000340: eacc 0d3d 89b8 a6bc e37f f73c 2f70 2dbd
00000350: 8b4f 683c 652c e9bc 6886 cd3c c49c 27bd
00000360: ea26 bbbc bf14 e93c 7fbb a8bb c4c5 d8bc
00000370: 747a 1dbd b62d f03c 8e1b f0bb c846 ca3c
00000380: 843b 513c af53 6d3b bc5e 093d 6b70 d1bc
00000390: 2321 af3c e508 ad3c 7fe9 30bc 45ba 573c
000003a0: a5eb 133d ea66 a93c f6b3 fbbc 4031 8bbc
000003b0: 582b 22bc 896b b1bb 2371 06bd 9b63 1c3d
000003c0: 1f58 463c 515f 7dbc 5522 103d b198 c63c
000003d0: 7910 b83a b9fb 1bbd cc93 ebbc 95d4 593c
000003e0: 3629 863c 248c fb3c 4e6f 1cbd 37c7 a6bc
000003f0: f098 c9bb 7c60 ac3c 2d99 d93c a553 1c3d
