reflexion/result/epoch_0001/critic.pth (torch, 3223 bytes, 1 tensors)

weight f4 [1, 512]
00000000: 9f71 bb3b 349e bd3c e59d f63b 1023 d2bc
00000010: d9d5 febb b123 f23c 6abf 6a3c fe65 133d
00000020: 937b 1cbd bab5 c7bc 762c 243d a6ac 2b3d
00000030: b536 083d 8470 33bd 59a5 043d 43ae 183d
00000040: 20bc 853c de72 7abb 6d80 c1bc 119d d43c
00000050: 4ac0 283d db6d bb3c 5f18 26bc 77c7 863c
00000060: b91c a2bc f294 2cbd b5fc 8c3c 31f9 9dbc
00000070: 751b 4f3c 8e17 e73b 32ee c23c 418a a53c
00000080: 5c08 333d 2417 1b3d 6f0a b13a 669a 103c
00000090: ec01 c7bb c38f 993c 6632 1cbb 4012 4f39
000000a0: 2ff6 923c eee8 d4bc efab 6f3c cc5e 003c
000000b0: d667 28bd aace 10bc b70c 713c eea6 b03b
000000c0: b916 09bd b378 9dbc 5290 f83c ba2c 7f3c
000000d0: 7b02 24bd eab6 a53b 2702 8c3c 9e83 a83b
000000e0: d3b5 693b ab1b b03b 7ef4 d7bb 74f4 0abc
000000f0: e443 f03c 5d9b be3b 7f50 f3bc 1c0b 303d
00000100: aed4 a1b9 e46c ebbc ff50 e13a 509e ff3b
00000110: 6edb b1bc fa3f 21bc 0035 4cbc 9709 183c
00000120: dc6c 2ebd 2744 e13c 8858 91bc 7b3f 21ba
00000130: 01e8 af3b 40f2 26bd dceb 113d 6a9e c3bc
00000140: 08ca fbbc 6a9a a5bc 550c 3dbb 5ccb efbc
00000150: 3ec7 e5bc 0b32 973c 527f 05bd d8ea ef3c
00000160: 85ec 0a3d 00af 123c d6e3 d13c bd84 b93a
00000170: a945 c83c aff0 e43c 31c8 1d3c 88a9 c7bc
00000180: 811a 223b 3010 efbc 876e 39bb ff41 0d3c
00000190: 4304 b2bb 10ce 0b3d 527b 7dbc 1188 3f3b
000001a0: 9c16 fdba 9064 25bd c554 5e3c d0e7 303d
000001b0: 0e7f d5bb 6aa6 af3c 74bb 94bc 1409 213d
000001c0: 1cf9 c8bc 74b3 313d 6bae f8bc df34 7cbc
000001d0: 5c10 17bd 1b54 26bd 8f1a 1cbd 140e a7bc
000001e0: 2a47 633c c119 0d3d 609d da3c a20b f4bc
000001f0: f2a8 2fbd d45c 17bd e8a9 2b3d 3c27 c33c
00000200: 21c2 343d 8762 993c 59ed 3abc 524e ffbc
00000210: 1ab0 f33c 4153 d13c 51d6 24bd 7fed bfbc
00000220: 33d5 98bc a54b a93c 1845 303d 9ccc ba39
00000230: f163 873c 1a8b ccbc e3de 0b3d 54a6 e739
00000240: c490 a23c fbaa 353c 917d bebc f7a0 e63a
00000250: ae61 2cbc 8223 c1bc e6e0 b8bb 071d 123d
00000260: c2b8 b63c b2db cdbb 24bd ab3a ac91 ff3c
00000270: 42a3 babc 072a 1abd 8558 83bc 78a7 6d3c
00000280: fef8 fc3c aab9 0ebc 1d6b b43b 35be fe3c
00000290: 8124 8d3b 97fc 983c faa4 05bc 01d2 0dbd
000002a0: 9b6a 423b 8acd 1a3c 7edd 6dbc ac3f 9f3b
000002b0: db51 543c c5d0 213d 8e1f 9abc f68c 733c
000002c0: 452a 6a3b c0ed 0e3d 9e1c 18bd 965e 1e3d
000002d0: d987 b9bc 0349 bfbc eb62 24bd 3146 f93c
000002e0: 0d9a 1abd 4bc2 91bb 789f f13c c08f 8fbc
000002f0: 6ec3 203d 557e 0b3d 9362 b5bc 33c3 303d
00000300: e9f8 85bc 8cde 5abc 6eea 0dbd 40c6 203d
00000310: b4b4 0fbd e68a 653b cc40 ab3c 9d52 923b
00000320: 419c 283d 345b bbbc 953e ac3c e2c2 bd3a
00000330: 7449 15bd 3d0e 393c 4e2c 2fbd 889f 193d
00000340: edf1 0d3d fa1a a8bc 1703 f73c 70b5 2cbd
00000350: 8429 6a3c 73cd e9bc 9e43 cc3c 450d 27bd
00000360: 4881 b9bc 8198 ea3c 29ac a8bb 199d d7bc
00000370: 747a 1dbd f31c f13c f4f1 f3bb fc3e ca3c
00000380: 7723 513c 7d27 713b fde3 093d 3a0b d1bc
00000390: 4e2f b13c b3ad ad3c a548 37bc 94ec 583c
000003a0: fa24 143d eef2 a83c ea10 fbbc 5370 8bbc
000003b0: 68d2 1fbc e682 b9bb cd6c 06bd d1cb 1b3d
000003c0: 1f58 463c 1877 80bc 3212 103d 3e3a c63c
000003d0: eda8 bb3a 1655 1cbd 2677 ebbc 1e30 5b3c
000003e0: 73f7 853c e58d fb3c c746 1cbd 6958 a7bc
000003f0: f098 c9bb ccce ac3c 359f d93c fc7b 1c3d
0.005720332 0.023146726 0.0075261467 -0.025651485 -0.0077769575 0.029558035 0.014327863 0.03598594
-0.038203787 -0.024378646 0.040081464 0.041912697 0.033255298 -0.043808475 0.03238425 0.037275564
0.016325057 -0.0038215439 -0.023620808 0.025953801 0.041199006 0.022879532 -0.010137646 0.016452534
-0.019789087 -0.042134233 0.017210344 -0.019283863 0.012640824 0.0070523685 0.023795221 0.020207526
0.043709144 0.037863865 0.0013507138 0.008825874 -0.006073227 0.018745309 -0.002383375 0.00019747857
0.017939655 -0.025989976 0.0146283945 0.007835101 -0.04111465 -0.008838335 0.014712504 0.0053909933
-0.033468936 -0.019222593 0.030342255 0.0155746285 -0.040041428 0.0050572054 0.01709087 0.005142643
0.0035661354 0.005374392 -0.006590425 -0.008481134 0.029329248 0.0058168606 -0.02970147 0.042979345
-0.00030866772 -0.028738447 0.0017190276 0.0078008547 -0.021711078 -0.009841913 -0.012463808 0.00927963
-0.042584285 0.027498318 -0.01774241 -0.0006151122 0.005368233 -0.04075837 0.035625324 -0.023879249
-0.030735984 -0.020215232 -0.0028846462 -0.029271774 -0.028049108 0.01845648 -0.032592125 0.029286787
0.03391697 0.008952856 0.025621336 0.0014153939 0.024447279 0.027946798 0.009630249 -0.024372831
0.0024735036 -0.029182523 -0.002829464 0.008621692 -0.005432637 0.034132063 -0.015471296 0.002922539
-0.0019309106 -0.040379107 0.013570015 0.043189824 -0.0065153902 0.021441657 -0.01815579 0.0393153
-0.024532847 0.04338403 -0.030356606 -0.015393465 -0.036880836 -0.040607553 -0.038111266 -0.020392455
0.013871947 0.03444839 0.02668637 -0.029790703 -0.04288573 -0.036953762 0.041910082 0.02382242
0.04413045 0.01872374 -0.011409127 -0.031165276 0.029747058 0.025552394 -0.04024345 -0.023428677
-0.018656349 0.020665953 0.043034643 0.0003562913 0.016527148 -0.024968673 0.03414811 0.00044183678
0.01984442 0.011088128 -0.023253234 0.0017595579 -0.0105213355 -0.023576502 -0.0056420444 0.035672214
0.022304896 -0.0062822932 0.0013102633 0.031197391 -0.022782926 -0.037637737 -0.01603342 0.01450526
0.030880447 -0.008711258 0.005505933 0.031096557 0.00430733 0.018675132 -0.008157009 -0.034624103
0.0029665593 0.009448418 -0.01451814 0.004859885 0.012958969 0.03950574 -0.018813875 0.014865151
0.003573076 0.034894705 -0.037136666 0.038664423 -0.022647785 -0.023350244 -0.040133398 0.030428978
-0.03774457 -0.0044482104 0.029494986 -0.0175246 0.039248876 0.034056026 -0.02214173 0.043154906
-0.016354041 -0.013358723 -0.034647398 0.039251566 -0.03508444 0.0035025417 0.020904921 0.0044654147
0.04116464 -0.022870637 0.021025935 0.0014477635 -0.036447003 0.011294899 -0.04276686 0.037505656
0.034654547 -0.020520676 0.03015284 -0.04216522 0.014292125 -0.028540349 0.024934586 -0.04078414
-0.022644654 0.028637173 -0.005147476 -0.026320027 -0.03844686 0.02943275 -0.0074446145 0.024688236
0.012764803 0.0036797218 0.033664692 -0.025518049 0.021629002 0.02120099 -0.011186753 0.013239998
0.036168076 0.02062365 -0.030647714 -0.017021334 -0.009754755 -0.0056613563 -0.032818604 0.03803617
0.012105971 -0.015681788 0.035173602 0.024197694 0.0014317312 -0.03816708 -0.028743338 0.013378171
0.016353345 0.030707309 -0.038153436 -0.0204279 -0.006152265 0.021094702 0.026565174 0.03820418
