reflexion111/result/e21-actonly-concat-step10500/critic.pth (torch, 3223 bytes, 1 tensors)

weight f4 [1, 512]
0	0x3bab430a	0.0052264975
1	0x3cbbc7c5	0.022922406
2	0x3bf69de5	0.0075261467
3	0xbccc3fff	-0.02493286
4	0xbbfed5d9	-0.0077769575
5	0x3cef7108	0.029228702
6	0x3c6abf6a	0.014327863
7	0x3d113ff3	0.035461377
8	0xbd1b0184	-0.037843242
9	0xbcc50a00	-0.02405262
10	0x3d220367	0.039554026
11	0x3d2b9efc	0.041899666
12	0x3d085f51	0.033294026
13	0xbd2feb5c	-0.042949066
14	0x3d0460aa	0.03231875
15	0x3d1204dc	0.035649166
16	0x3c852f19	0.01625781
17	0xbb56d54b	-0.003278094
18	0xbcbe4f16	-0.02323107
19	0x3cd0d3d6	0.025491636
20	0x3d2881ef	0.04113954
21	0x3cbb8abd	0.022893304
22	0xbc243747	-0.010022945
23	0x3c833e11	0.016020807
24	0xbca4d186	-0.02011944
25	0xbd2b8685	-0.041876335
26	0x3c8ce072	0.017196868
27	0xbc9d9c9c	-0.019239716
28	0x3c485360	0.012226909
29	0x3bd7312f	0.0065671424
30	0x3cc20f24	0.02368886
31	0x3ca563e7	0.020189239
32	0x3d33bada	0.043879367
33	0x3d1aa7eb	0.037757795
34	0x3a996008	0.0011701593
35	0x3c0683c2	0.008210124
36	0xbbc5ac7e	-0.0060325256
37	0x3c9cc238	0.01913558
38	0xbb19b2f8	-0.002345262
39	0x395de917	0.00021163035
40	0x3c9065aa	0.017626602
41	0xbcd55cab	-0.026045164
42	0x3c6a06d4	0.0142838545
43	0x3c01ce09	0.007922658
44	0xbd277f15	-0.04089268
45	0xbc0f890e	-0.008760704
46	0x3c713ff6	0.014724722
47	0x3ba78845	0.00511268
48	0xbd07672b	-0.033057373
49	0xbc9b3174	-0.01894448
50	0x3cf2fde0	0.029662073
51	0x3c73841e	0.014863042
52	0xbd247684	-0.040152088
53	0x3ba76b1f	0.0051092054
54	0x3c815b0f	0.01579049
55	0x3ba65e09	0.005077128
56	0x3b0867bd	0.0020813786
57	0x3bb01bab	0.005374392
58	0xbbd3e36b	-0.0064663193
59	0xbc05223b	-0.008125837
60	0x3ce7f048	0.028312817
61	0x3bca72f0	0.0061782524
62	0xbcf4cbcd	-0.029882336
63	0x3d30a41e	0.043125264
64	0xb9a1d4ae	-0.00030866772
65	0xbceb8ed3	-0.028754627
66	0x3aa5ece8	0.0012659105
67	0x3be5ce11	0.0070130904
68	0xbcb12b59	-0.021627115
69	0xbc19b5d1	-0.009381727
70	0xbc4b4096	-0.012405535
71	0x3c14a014	0.009071369
72	0xbd2e2ae6	-0.04252138
73	0x3cd8c70b	0.026462099
74	0xbc919ecd	-0.017775917
75	0xba213f7b	-0.0006151122
76	0x3ba7abed	0.0051169307
77	0xbd2544bf	-0.040348765
78	0x3d11db9e	0.035609834
79	0xbcc25154	-0.02372042
80	0xbcfbd900	-0.030743122
81	0xbca1e334	-0.01976166
82	0xbb45b522	-0.0030167778
83	0xbceefbf9	-0.029172884
84	0xbce63c08	-0.028104797
85	0x3c93a07c	0.01802086
86	0xbd061ae7	-0.0327405
87	0x3cec54ca	0.028849024
88	0x3d0a4c1d	0.033763994
89	0x3c17547f	0.009236454
90	0x3cd1fc04	0.025632866
91	0x3ab2f3d6	0.0013652991
92	0x3cc784c0	0.024355292
93	0x3ce4d1da	0.027932096
94	0x3c1d620a	0.009605894
95	0xbcc4975e	-0.023997959
96	0x3b221a81	0.0024735036
97	0xbcecd67e	-0.028910872
98	0xbb362507	-0.0027793066
99	0x3c0785cf	0.008271649
100	0xbbb68a55	-0.0055706897
101	0x3d0baa94	0.034098223
102	0xbc7b4964	-0.015337322
103	0x3b1d3112	0.0023985547
104	0xbb017a6d	-0.001975681
105	0xbd256f40	-0.0403893
106	0x3c5fb4f6	0.013653984
107	0x3d2bceb3	0.04194517
108	0xbbd69de7	-0.006549585
109	0x3cad3247	0.021142138
110	0xbc9485e8	-0.018130258
111	0x3d2093a3	0.039203297
112	0xbcc852d4	-0.024453558
113	0x3d30e433	0.043186378
114	0xbcf8e12b	-0.030380806
115	0xbc6b95e1	-0.014378996
116	0xbd17105c	-0.036880836
117	0xbd25e56f	-0.040502008
118	0xbd197c79	-0.037472222
119	0xbca7131e	-0.020394858
120	0x3c5c33f6	0.013440123
121	0x3d0c917e	0.03431844
122	0x3cd831bd	0.026390905
123	0xbcf3d513	-0.029764688
124	0xbd301c0a	-0.04299549
125	0xbd155031	-0.03645343
126	0x3d221058	0.039566368
127	0x3cc35790	0.023845464
128	0x3d34c221	0.04413045
129	0x3c93e413	0.01805309
130	0xbc325005	-0.010883336
131	0xbcfc1a94	-0.030774392
132	0x3cf4b97f	0.029873608
133	0x3ccd8987	0.025089992
134	0xbd21d89e	-0.039513223
135	0xbcbefbf5	-0.023313502
136	0xbc9a3941	-0.018826129
137	0x3ca9c34b	0.020723006
138	0x3d28c3f3	0.041202497
139	0x3912a975	0.00013986773
140	0x3c892968	0.016743377
141	0xbccc8b1a	-0.024968673
142	0x3d0be489	0.034153495
143	0xb9adbd1a	-0.00033138023
144	0x3c97193a	0.018444646
145	0x3c38daa2	0.011282595
146	0xbcbad21b	-0.022805264
147	0x3a026e03	0.00049754995
148	0xbc2d5d75	-0.010581364
149	0xbcbf8189	-0.023377197
150	0xbbab7e03	-0.0052335276
151	0x3d099ee9	0.033598814
152	0x3cb6b8c2	0.022304896
153	0xbbcddbb2	-0.0062822932
154	0x3a4f2459	0.00079018396
155	0x3cfd85e4	0.030947633
156	0xbcbaa342	-0.022782926
157	0xbd1a9475	-0.037739236
158	0xbc832159	-0.016007112
159	0x3c6eb5de	0.014569728
160	0x3cfcf8fe	0.030880447
161	0xbc01655e	-0.007897703
162	0x3ba04fc4	0.0048923213
163	0x3cf8d986	0.03037716
164	0x3b86cfe4	0.004114138
165	0x3c980ef1	0.018561812
166	0xbc08e124	-0.008354459
167	0xbd0db96f	-0.03460067
168	0x3b1b87d7	0.002373209
169	0x3c16853f	0.009187042
170	0xbc6dc294	-0.014511723
171	0x3b78b17e	0.003794759
172	0x3c516f34	0.012782861
173	0x3d1e2dd6	0.03861793
174	0xbc999b80	-0.018750906
175	0x3c600d08	0.013674982
176	0x3b6122eb	0.0034353088
177	0x3d10266e	0.0351929
178	0xbd187c0d	-0.03722768
179	0x3d1da9ef	0.03849214
180	0xbcbadbe4	-0.02280993
181	0xbcbd2217	-0.023087544
182	0xbd236052	-0.03988678
183	0x3cf64925	0.030064175
184	0xbd18877f	-0.037238594
185	0xbb920442	-0.004456074
186	0x3cf19f78	0.029494986
187	0xbc8cd13c	-0.017189614
188	0x3d2075d0	0.039174855
189	0x3d0a11be	0.033708327
190	0xbcb5f45f	-0.022211252
191	0x3d2add15	0.041714747
192	0xbc843240	-0.016137242
193	0xbc63d5a9	-0.013905921
194	0xbd0daa8a	-0.034586467
195	0x3d1f5c02	0.038906105
196	0xbd0fe965	-0.03513469
197	0x3b7f3049	0.0038938692
198	0x3cab40cc	0.020904921
199	0x3b88b67c	0.0041721445
200	0x3d268ba3	0.04066051
201	0xbcafafda	-0.021446157
202	0x3ca2c70b	0.019870302
203	0x39dda83f	0.00042277758
204	0xbd14f336	-0.036364757
205	0x3c31de88	0.010856278
206	0xbd2d898e	-0.04236751
207	0x3d199298	0.03749332
208	0x3d0b3faa	0.03399626
209	0xbca1f0dd	-0.019768173
210	0x3cf582a7	0.029969526
211	0xbd2d5435	-0.042316634
212	0x3c62046f	0.013795002
213	0xbcea527a	-0.028603781
214	0x3cca73e3	0.024713462
215	0xbd1c41ef	-0.038148817
216	0xbcb13511	-0.02163175
217	0x3ce6aad5	0.028157631
218	0xbba26529	-0.004955907
219	0xbcd60f59	-0.026130365
220	0xbd1d7a74	-0.03844686
221	0x3ce704b2	0.028200481
222	0xbbf335fb	-0.0074222065
223	0x3cc93b3a	0.024564374
224	0x3c5230cf	0.01282902
225	0x3b32546e	0.0027210969
226	0x3d08e53c	0.03342174
227	0xbcd13ff8	-0.025543198
228	0x3caefc48	0.021360531
229	0x3ca90c5d	0.020635778
230	0xbc17b710	-0.009259954
231	0x3c5d1fe5	0.013496374
232	0x3d1424fa	0.036168076
233	0x3c998cab	0.018743834
234	0xbcf6a56a	-0.030108172
235	0xbc8aeecc	-0.01695957
236	0xbc220a65	-0.009890174
237	0xbbaffd8e	-0.0053708022
238	0xbd06ad32	-0.032880016
239	0x3d1c0412	0.03808982
240	0x3c46581f	0.012105971
241	0xbc74f490	-0.014950886
242	0x3d0ad7ee	0.033897333
243	0x3cc5143c	0.0240575
244	0x3a9b9a6b	0.0011871582
245	0xbd1a31d4	-0.037645176
246	0xbceaeb9a	-0.028676797
247	0x3c59d495	0.013295312
248	0x3c84a403	0.016191488
249	0x3cfbb169	0.030724244
250	0xbd1c7213	-0.038194727
251	0xbca7b72b	-0.020473083
252	0xbbad4b54	-0.005288521
253	0x3ca5d896	0.020244878
254	0x3cd64559	0.026156114
255	0x3d1bacf1	0.038006727
